Models/Multimodal/models_checkpoint.pth (torch, 714256 bytes, 26 tensors)

code_bias f4 [10]
000000 34 dd 83 be f4 ba e1 3e 85 89 a9 bf 50 b4 f4 bf
       -0.25754702 0.44087946 -1.3245093 -1.9117527
000010 bd 5b 98 3e 28 ce 0b 3e 97 de d3 3e ec be 05 bf
       0.2975749 0.13652861 0.4138076 -0.5224445
000020 77 41 3d be b5 68 3f 3f
       -0.18482004 0.74769145

audio_layer.weight f4 [128, 128]
000000 e9 0f 1e be cd 27 2b 3d 1d 19 f9 3d 62 6f 08 be
       -0.15435757 0.041786004 0.12162993 -0.13323739
000010 70 ca 03 3c 12 a1 dc bd c8 c2 87 bc 87 45 5a bd
       0.00804387 -0.10772909 -0.016572371 -0.053288963
000020 d6 e4 b1 bd ee e4 ce 3c 65 c7 09 3e cf 39 2c bd
       -0.08686225 0.025255647 0.13454969 -0.042047318
000030 44 1e 7e bc 59 26 fb bd ce 18 0e be ba 84 1b be
       -0.015510146 -0.122631736 -0.1387665 -0.1518735
000040 94 3e 26 3d 22 0a 1e 3d dc 7f e8 bc 64 af 9f 3d
       0.040587023 0.038583882 -0.02838128 0.07797125
000050 b2 ff 1b 3e e6 62 9c bd d9 d4 98 bc 13 e1 17 bd
       0.15234259 -0.07636051 -0.018656181 -0.037079882
000060 b2 68 a1 3d c4 37 09 bd 9c 95 e2 bc fa 9e 1d bd
       0.07881297 -0.033500448 -0.02765923 -0.03848169
000070 57 70 20 3c db f3 0d bd cf 17 4a 3d 00 52 59 bd
       0.009792409 -0.034656387 0.049339112 -0.053056717
000080 45 09 a4 3c 05 e6 ae bd a4 b3 58 3c 38 d7 4c 3d
       0.020023951 -0.085399665 0.013226423 0.050009936
000090 6d 2c bc 3d 76 fd ef 3d ae 39 9d bd 92 75 bd bd
       0.09188161 0.11718266 -0.07677017 -0.092509404
0000a0 b8 93 3b 3c 8a 16 07 3e 81 e9 c8 ba 62 aa 96 bd
       0.011448793 0.13192192 -0.0015328379 -0.07356717
0000b0 a3 0d ff bd d6 6f 98 3d 01 aa 27 3e ee 2b 9b bd
       -0.12453773 0.07443206 0.16373445 -0.07576738
0000c0 4f 89 7b bd c4 8c 69 bd df 6a 08 be d2 70 8e bd
       -0.061410245 -0.05701901 -0.13322018 -0.069551125
0000d0 39 db 28 bc 9e e4 c9 bd ad af 33 3d c9 d6 41 bd
       -0.010306173 -0.098580584 0.04386871 -0.047323976
0000e0 41 7c 0b 3c a2 40 02 bd 09 5d d1 3c 7f 68 84 bd
       0.008513511 -0.03179992 0.025557058 -0.064652435
0000f0 16 ee 3c 3d 28 44 83 3b 02 ea 64 be 10 22 83 bb
       0.046125494 0.0040059276 -0.22354892 -0.0040018633
000100 3c e4 48 3c 8b a7 52 3d ea 0e 6b bd 6f 73 4d 3d
       0.012261447 0.051429313 -0.05738727 0.050158914
000110 cc 0c 1e bd c1 06 e0 bd e7 83 d3 3d a5 84 d4 bd
       -0.038586423 -0.10938788 0.10327893 -0.103768624
000120 a0 ed 98 3d f8 50 c0 3c 1b 11 04 3e 92 93 14 3e
       0.07467198 0.023476109 0.1289715 0.14509419
000130 88 4e 90 bd fa 46 04 3d 1c cd 93 3d 4b 82 1c bd
       -0.07046229 0.03229425 0.07216856 -0.038210195
000140 0e d6 18 bd 97 72 02 be 5d 65 08 bd b5 2d 75 3e
       -0.037313513 -0.12739025 -0.033299793 0.23943217
000150 33 b9 25 bb 45 ad d3 3c e9 6f 9c 3d 1b d1 fa 3d
       -0.002528739 0.025839457 0.07638533 0.12246915
000160 af eb 01 3e 00 97 f6 bd da 6c 28 3d be 31 08 be
       0.12687562 -0.1204052 0.041119434 -0.13300225
000170 e6 5e b2 3d 86 30 8d bd 60 61 19 bd b5 3b ff bd
       0.08709507 -0.06894021 -0.03744638 -0.1246256
000180 a2 7c f6 3d b6 39 d4 bd f6 7b 6d 3d 81 8b d4 3c
       0.120354906 -0.1036257 0.057979546 0.025945427
000190 22 b6 06 3e 15 44 38 3d 48 47 81 bd d1 ac ab bd
       0.13155416 0.044986803 -0.06312424 -0.083825715
0001a0 68 90 1a 3d 8f d3 85 3d ca 89 0f be f0 d4 ba 3c
       0.037735373 0.06534492 -0.14017406 0.022806615
0001b0 ac 87 05 3d d0 eb 81 3d 8c fc f1 bd 3e cd 9b 3d
       0.03260009 0.06343806 -0.118157476 0.07607506
0001c0 08 ee 2f 3d 55 2d ba 3c 8d e8 18 bd 7a ea ab bc
       0.042951614 0.022726694 -0.037331153 -0.02098583
0001d0 9d 94 ca bd bc c6 f6 bc ff a0 77 bc 75 c0 aa 3c
       -0.09891627 -0.03012406 -0.015114068 0.020843724
0001e0 ef 44 25 bd d1 64 ff 3d 75 0d 02 bd 40 cd 31 bd
       -0.040348943 0.12470401 -0.031751115 -0.043408632
0001f0 fa 49 91 bd e2 c0 ae 3c 9e 8a 48 bd 94 26 59 3d
       -0.07094188 0.021332208 -0.04896032 0.053015307
000200 73 bf c1 bd 16 a6 9d 3d 6f b6 f6 bc 41 94 af bd
       -0.09460344 0.07697694 -0.030116288 -0.08573199
000210 bb 38 25 3d a6 51 ec 3d 96 d7 9d 3c d1 d9 04 3e
       0.040337306 0.11539011 0.019267838 0.12973715
000220 24 8e fa 3d ba a1 d3 bd 0e 72 5f bd 4d 2c 0a be
       0.122341424 -0.10333581 -0.05455213 -0.13493462
000230 cf 18 eb bd f5 fc 58 bd f4 4c 90 bd 20 c1 34 3e
       -0.11479341 -0.052975614 -0.07045928 0.17651796
000240 e6 46 d3 3d 0f 68 76 bc 53 6c 0d bd 92 e7 a7 bd
       0.10316257 -0.015039458 -0.034527134 -0.081984654
000250 ac a3 e1 bc 16 c1 20 be f2 f5 dc 3c c1 a5 8e bd
       -0.027543865 -0.15698656 0.026972745 -0.06965209
000260 a0 5d 74 bd 69 ff e3 bc 04 c9 02 3d 49 5d f3 bd
       -0.0596596 -0.02783175 0.031929985 -0.11883027
000270 73 b1 31 3d 43 22 a2 3d 7d 30 c3 bd 42 d4 54 bd
       0.04338212 0.07916691 -0.09530733 -0.051960237
000280 ec d2 d7 3d 5c 4e 06 be 32 52 36 3e 02 43 9a bd
       0.10538277 -0.13115829 0.17804793 -0.07532312
000290 06 c5 bb b9 e3 53 96 3d 28 c1 3b 3e 1a b5 cb bb
       -0.00035814213 0.07340219 0.18335402 -0.0062166573
0002a0 ea 73 ab bc ef e8 5a bd 68 f2 8a bd 36 80 ec 3c
       -0.020929296 -0.0534448 -0.067845166 0.02886973
0002b0 25 bf 4f 3e 4a 4a 49 3d 97 c7 c2 3d 61 ac 60 bd
       0.2028776 0.049143113 0.09510725 -0.054851893
0002c0 a5 da a1 bc cb 1e df 3d b1 94 a1 3b 7f a0 97 bd
       -0.019757578 0.10894545 0.0049310555 -0.07403659
0002d0 ab 62 1e 3d 8e ce b2 bd 37 00 6f bd d1 9d 0e be
       0.038668316 -0.087308034 -0.058349814 -0.1392739
0002e0 31 2a 0d 3e f4 88 95 3d 5a 67 87 3b ad 8a 05 3d
       0.13785626 0.07301512 0.0041321935 0.032602955
0002f0 eb 59 d2 3c 11 0b a9 3d 4f dd c3 bd 5d 2d d2 bd
       0.025677642 0.08254064 -0.09563696 -0.102625586
000300 9c 25 d0 3b fa b8 48 3e 35 ab 8d 3d 18 ed a4 3d
       0.0063521396 0.19601813 0.06917421 0.080530345
000310 70 15 6f 3d d9 52 70 3d b6 93 06 3d 13 42 b1 3d
       0.058370054 0.05867276 0.032855712 0.08655181
000320 b4 68 06 bd 27 9a 8d 3b 9e 51 af bc a9 54 7b 3d
       -0.032814696 0.004321355 -0.021401223 0.061360035
000330 14 9b 90 bd b2 95 90 3d 5a 82 f8 3d 5d 4a a3 bd
       -0.07060829 0.07059802 0.121342376 -0.07973168
000340 45 c1 d8 3a cd 0e 82 bd cb a3 b2 3d 5c 31 20 be
       0.0016537091 -0.06350479 0.08722647 -0.15643829
000350 5e 83 60 be 46 87 62 bd 3e 24 53 3e 87 1a 36 be
       -0.21925113 -0.055304788 0.20619294 -0.17783557
000360 55 c0 28 3e e6 72 2b bd 0e 32 4f bc 4f 17 26 be
       0.16479619 -0.041857623 -0.012646211 -0.16219829
000370 0b ef fe 3d bc 31 d8 3d b6 b1 74 3d 4b f1 99 3d
       0.124479376 0.10556361 0.05973979 0.07516726
000380 0d c8 02 bd d9 23 3e 3c fc f8 90 3c 2e 64 04 3e
       -0.031929065 0.011605226 0.01769685 0.1292884
000390 03 e3 86 bd 6c 54 fc 3c ee 81 94 bd ab 91 ac 3d
       -0.06586268 0.030801974 -0.072513446 0.084262215
0003a0 c4 b8 36 39 f5 1c 58 be d5 5c 1d 3c a2 57 fd bd
       0.00017425703 -0.21104796 0.009604652 -0.1237023
0003b0 e6 6a 86 bd 32 60 c3 3c 03 2e 35 3e b8 6b 39 bd
       -0.06563358 0.02384958 0.17693333 -0.045268744
0003c0 ac 62 0a bd 84 12 e5 3c 7c c1 21 3e 6e 58 9c 3c
       -0.033785507 0.02796293 0.15796465 0.019085135
0003d0 24 2f 16 be 59 da 3a 3d 9e 81 2a bd 90 76 56 3d
       -0.1466642 0.04561839 -0.04162752 0.052359164
0003e0 b0 02 9f 3d 26 57 47 bc 42 25 01 be a5 18 b1 bd
       0.077641845 -0.012166774 -0.12611869 -0.08647279
0003f0 09 19 fa bc f3 3f 56 bd 0b 63 1f 3d fc 7a 48 3d
       -0.030529516 -0.05230708 0.038912814 0.048945412

audio_layer.bias f4 [128]
000000 95 af 20 bb 3d a1 81 bc 0f eb e3 bb de 53 09 bc
       -0.0024518718 -0.015823955 -0.0069555114 -0.008381812
000010 94 26 4a 3b 7e 46 b2 bb b6 38 2c 3c a3 e8 2e ba
       0.0030845748 -0.005440532 0.010511568 -0.0006672239
000020 60 db 00 3c 75 69 10 3c 73 01 4d bc cb 0f e2 3b
       0.007864803 0.008814205 -0.012512553 0.0068988553
000030 3c da 82 bb 85 d9 1d bb b9 09 28 ba db da bb bb
       -0.0039933007 -0.002408595 -0.000641014 -0.0057328767
000040 ed c1 b8 3a e7 fd e6 bb 5d 9c 25 bc f1 d2 07 bc
       0.001409588 -0.0070493105 -0.010108081 -0.008290038
000050 6c 4f 1d bc 93 bd 73 3b 8a 6a ed 39 f5 fe e8 3b
       -0.009601455 0.0037191852 0.0004528354 0.0071104714
000060 62 0c 99 bb 64 10 40 3c 5a 23 85 3c 09 20 06 bb
       -0.0046706656 0.011722658 0.016252209 -0.0020465872
000070 3e d3 9f 3c a1 90 fe ba 00 fa 65 3b 6e 64 a0 bc
       0.019509908 -0.0019421765 0.0035091639 -0.019579139
000080 d4 25 7d 3b 3f 24 b6 ba 2f 77 db ba 51 a1 92 3b
       0.0038627284 -0.00138963 -0.0016743894 0.004474797
000090 f9 e5 3c bb c0 93 f2 3b 15 4c 70 3c ce 45 ff b9
       -0.0028823598 0.007402867 0.014666577 -0.000486894
0000a0 aa 52 85 3c bf 02 5a bc 05 45 ba 3a ca d3 0a ba
       0.016274769 -0.013306319 0.0014211243 -0.0005295841
0000b0 ea 9f c8 ba 10 6a 36 3b 8c 9b d2 ba a6 11 d0 39
       -0.0015306447 0.0027834214 -0.0016068085 0.00039686
0000c0 0d 70 1d 3c 57 be b3 b8 8e ec ac bc 07 14 3e 3c
       0.0096092345 -8.570839e-05 -0.021108892 0.011601455
0000d0 41 93 49 3b 7c be 0b bb 22 5b f2 ba 31 ef c4 3b
       0.0030757936 -0.0021323254 -0.0018490294 0.006009959
0000e0 ad 84 7a 3c 8e 4e 52 3c af d6 aa bc 4a 05 02 39
       0.015290421 0.012836112 -0.020854322 0.00012399736
0000f0 be 56 81 bb 27 cc 69 bb 34 df 20 bc 75 c7 23 3c
       -0.003947108 -0.0035674663 -0.009818841 0.009996285
000100 4c 64 4e 3a 89 4f 2c 3c 3e 40 8e 3a 0f e3 52 3b
       0.0007873222 0.0105170095 0.0010852886 0.0032178794
000110 87 cc 1b 3c 66 09 a6 bb 99 73 1c bc 6f 2d 87 bb
       0.009509212 -0.0050670383 -0.009549045 -0.004125289
000120 10 06 06 3c e2 d1 4f 3c af 5d da 3b a8 53 fa bb
       0.008180156 0.012684317 0.006664 -0.007639367
000130 67 22 4d bb e7 cd 1a bb 7d 0e 5f 3c 3c ce 8e 3b
       -0.0031301023 -0.0023621263 0.013614294 0.004358081
000140 89 2e 4b bc 48 e0 3c 3b f8 48 41 bb 86 65 5b bc
       -0.012401232 0.0028820205 -0.0029492956 -0.013390904
000150 fd 84 58 3b 99 ed a6 3c c8 46 4f bc 6c f4 61 3b
       0.0033038252 0.020376967 -0.012651153 0.0034477962
000160 56 ac ef 3b a5 fb 2a bb 71 27 27 3b 7b e5 93 3b
       0.007314245 -0.0026089933 0.0025505687 0.00451344
000170 6b 06 42 3c 6a fb 8f bc fa 63 65 3c cf da 13 ba
       0.0118423505 -0.017575938 0.014000887 -0.000564021
000180 e5 4a 2c ba 3e 60 bc 3b 73 57 d3 39 0c 2b 53 bb
       -0.00065724395 0.0057487777 0.0004031021 -0.0032221703
000190 95 01 81 3c 93 7b 5b bb 06 82 a2 3a 84 af cc 3b
       0.015747825 -0.0033490404 0.0012398369 0.006246509
0001a0 a5 c5 8a 3b 55 db c2 3b 12 ba 2a 3a 0a b3 8d 3c
       0.004234987 0.0059465566 0.0006512712 0.017297287
0001b0 7c a1 b3 ba b0 21 87 3b 7c 7e 1f bc 40 1a 22 3c
       -0.0013704742 0.004123889 -0.009734746 0.009893954
0001c0 95 72 56 b9 27 5f e5 bb 99 e2 0b 3c b5 c0 4e bc
       -0.00020451316 -0.0069998684 0.008537912 -0.012619187
0001d0 f7 f3 7f bb 28 b4 c4 3b b0 8c f8 3a 13 a2 31 bc
       -0.0039055326 0.0060029216 0.0018962827 -0.010841864
0001e0 8f de 6d 39 b6 28 8c 3c dd 95 21 bc a9 42 67 3c
       0.00022684991 0.017109256 -0.00986239 0.014115014
0001f0 8e 25 90 bb ec d1 cb bb f5 04 d8 bb 33 a8 0a 3c
       -0.004399008 -0.006220093 -0.006592388 0.008462953

code_layer.weight f4 [128, 10]
000000 88 03 54 3d 51 a7 0b 3d da d0 54 3d 0b 8a 7f bc
       0.05176118 0.034095112 0.05195699 -0.015596877
000010 2a 01 b1 3d dd b9 3a 3d 03 d5 10 be 84 44 b0 3d
       0.086428 0.04558741 -0.14143758 0.08606818
000020 e4 82 a0 bd ae 0a 91 bd 72 b0 4b be dc 81 42 bd
       -0.078374654 -0.07082115 -0.19891527 -0.047487125
000030 c8 b0 01 be 26 8a 44 3e 89 de 28 3e 6c 18 ac 3c
       -0.12665093 0.19193324 0.1649114 0.021007739
000040 cb 4f 8e 3d 51 1b da 3d 90 76 df 3c af f1 13 bc
       0.06948813 0.106497414 0.027278215 -0.00902979
000050 54 1e ee 3d 4b 00 f7 bc 87 77 31 3d da 3d 21 bd
       0.116268784 -0.030151507 0.04332688 -0.039365627
000060 62 62 9c 3d 21 51 7e 3d 3f 9f d8 3d f4 1e 91 3d
       0.076359525 0.06208909 0.10577249 0.07085982
000070 ea d8 0d be a2 a2 ce 3d e3 b4 f2 bd b0 50 ac 3d
       -0.13852277 0.100896135 -0.11850908 0.084138274
000080 83 42 a9 bc c2 c2 3d be fc d0 78 3c 10 a6 39 3c
       -0.020661598 -0.18531325 0.0151865445 0.011331096
000090 a3 c8 cb 3d f5 9b 2a 3d 42 3d a4 3c 2e a2 cf bd
       0.09950378 0.04165264 0.020048741 -0.10138355
0000a0 20 bb b8 3d e8 61 eb bd 63 1d 58 3d 3e 83 65 3d
       0.09020066 -0.114932835 0.0527624 0.056033365
0000b0 0a d8 20 3e ed 0b 48 3d bf d1 b9 be fa c3 b1 3d
       0.15707412 0.0488395 -0.36292836 0.08679958
0000c0 cc ba 76 bb 57 1b ca 3d 2b 4f 66 be e3 9e 9d be
       -0.003764796 0.09868496 -0.22491138 -0.30785283
0000d0 81 a5 46 be 10 72 da 3c 1a a5 58 3d 84 34 a3 3e
       -0.19399072 0.026665717 0.052891828 0.31876004
0000e0 1a dd 91 bd 10 fa 3a 3e 13 77 16 3c 05 e1 21 be
       -0.0712225 0.18259454 0.009183663 -0.15808494
0000f0 c8 5a 82 3d b0 d9 37 bd 02 e5 f8 bb d4 5e 20 3e
       0.063649714 -0.044885337 -0.0075956592 0.15661174
000100 dc b5 8d bd 23 4b 53 3c 0d 4f 7d bd 41 e3 0d 3e
       -0.069194525 0.012896332 -0.061842967 0.13856222
000110 b7 75 5e 3d 0f e1 58 3e cc 6c 9c 3c 19 b2 c1 bd
       0.05431148 0.21179603 0.019094847 -0.094577976
000120 05 1e d7 3c 58 92 bc bd be dc d4 bd b3 f7 21 3e
       0.026259432 -0.092076 -0.10393666 0.15817146
000130 f5 c4 08 3e bc 87 0e 3d 5f f5 8e be 65 f1 d3 3d
       0.13356383 0.034797415 -0.27921578 0.10348777
000140 41 0f 10 be 96 51 d2 bd 8e ca 42 3d 8c 5e ce 3d
       -0.14068319 -0.102694675 0.047556452 0.10076627
000150 6f db 81 3e d0 06 7a be 9e 73 2c be e1 88 44 3d
       0.25362727 -0.24416661 -0.1684098 0.0479821
000160 a9 b2 69 3e d7 0c b0 3d e8 8f 0a be 37 86 b0 bc
       0.2282206 0.08596199 -0.13531458 -0.021548374
000170 e3 83 5e 3d 49 a7 1d bc 5d a8 5b 3e e7 2e c1 bd
       0.054324996 -0.009622403 0.21450944 -0.09432774
000180 82 f1 0f 3e 6c 12 fa bd 75 82 fa bd 52 4f db bd
       0.14056972 -0.12210545 -0.12231914 -0.107084885
000190 7c 63 62 3d ee fa 87 bd 99 6a 91 3d 18 70 73 3d
       0.055270657 -0.06639658 0.0710041 0.059433073
0001a0 e7 60 09 bb 43 47 2c bc 86 3b 24 be 77 3c 9c bd
       -0.00209623 -0.010515037 -0.16038331 -0.0762872
0001b0 19 45 bc bd a0 e8 b1 3d 8c c9 21 3e 8a a2 c9 3d
       -0.09192867 0.08686948 0.1579954 0.09845455
0001c0 58 ff e8 3b 1a ce fd bd d3 1e c2 bd da d0 8f 3c
       0.0071105175 -0.123928264 -0.094785355 0.017555643
0001d0 b9 35 fc bd 68 9d a7 3e f1 3a 35 3e eb 38 28 3e
       -0.12314934 0.3273728 0.17698266 0.16427962
0001e0 7e 9b 75 3c b9 3f 87 bd d2 e0 69 be 6a 4c e8 bb
       0.0149906855 -0.06603951 -0.22839668 -0.0070891874
0001f0 9e 28 d2 3d 15 c2 46 bd 17 76 0e 3d 01 2f 2a 3e
       0.10261653 -0.048524935 0.034780588 0.16619493
000200 ef 3d 6b be e3 02 8b bd 66 6f 1d 3e 7c 3f a0 bc
       -0.22972845 -0.0678766 0.15374526 -0.019561522
000210 3f 84 c3 3a bc 25 31 3c 0c 26 e4 3a e0 30 55 be
       0.0014916732 0.010812219 0.0017406358 -0.20819426
000220 53 87 9a bd 2e 27 ed 3b a1 15 7e bd fd de 85 3d
       -0.07545342 0.0072373366 -0.062032346 0.06536672
000230 f2 73 af 3a 66 87 06 3d 8c b7 fe 3d e2 76 e9 3a
       0.0013385995 0.03284397 0.124373525 0.0017811919
000240 a1 de 35 3e a1 41 b9 3c cb 79 34 be 3c df 9f bd
       0.17760707 0.022614302 -0.17624585 -0.078062505
000250 f9 a1 0d 3e 05 0f 80 3d ca 9e b5 3d 20 31 0c 3e
       0.13831319 0.06252865 0.08868177 0.13690615
000260 86 96 d7 3b 46 31 fa bc a8 f1 86 3d 6f a2 f6 3d
       0.006579223 -0.030541074 0.06589061 0.120427005
000270 11 72 cd 3d e3 44 3e bd 51 56 8b bc 5e 88 31 be
       0.10031522 -0.046452414 -0.017008932 -0.17337176
000280 b2 11 01 be 14 bb 0c bd a1 0f 30 be f1 fc 14 3d
       -0.12604406 -0.0343581 -0.17193462 0.036374036
000290 f9 58 04 3e 1e 04 48 3d 5a 6c 51 3e 58 06 71 bd
       0.12924565 0.04883205 0.20451489 -0.05884394
0002a0 96 70 21 bd 44 3a 1b bd eb f0 85 3e ef f4 ba 3d
       -0.03941401 -0.037897363 0.26160368 0.091287486
0002b0 88 01 5c be ac 7f 7b 3e 0e 12 3b bd f9 e8 0a 3e
       -0.21484959 0.24560422 -0.045671515 0.13565435
0002c0 9b 15 ff bc 8d 5c 29 bd 60 d3 9c bd 50 7c 88 3b
       -0.031138232 -0.04134803 -0.07657504 0.00416521
0002d0 fb 56 33 bd ce 0d 81 bd 35 98 41 be 0f ba 5e 3e
       -0.043784123 -0.06301461 -0.18905719 0.21750663
0002e0 e4 f2 88 be 31 43 f1 bd 73 11 0c be e2 1e 02 3d
       -0.2674781 -0.11780394 -0.13678531 0.031767733
0002f0 2e d6 64 3e ab e2 38 3e 74 40 a9 3e bc 02 76 bd
       0.22347328 0.18055217 0.33056986 -0.0600612
000300 52 73 17 be 47 21 0e be 08 f1 bf bd cd 4c 68 bd
       -0.14790085 -0.13879882 -0.09372145 -0.056713868
000310 2e d7 b8 3d 66 97 34 3b 70 f8 66 bc 0d 48 07 3e
       0.09025417 0.002755606 -0.014097318 0.13211079
000320 8d c9 00 3d d3 4f db bd 43 8a a0 3d 28 26 41 bc
       0.031442214 -0.10708585 0.07838871 -0.011788882
000330 63 30 a0 3c 83 96 fe bc 94 29 62 3d 2b b3 92 bc
       0.019554323 -0.031077629 0.055215433 -0.0179077
000340 3b 92 2d 3d 53 af 39 3d 58 1c 8c bd 08 ad f3 bd
       0.042375784 0.045333218 -0.06841344 -0.118982375
000350 3a e0 2e bd 08 19 18 be b3 43 f2 3d 2d 9d 68 3e
       -0.042694308 -0.14853299 0.11829319 0.22716208
000360 07 93 45 bd 2a ea f0 3d 56 c6 19 bd 4b 74 40 be
       -0.04823592 0.11763413 -0.037542664 -0.18794362
000370 ff a2 36 3e 90 51 87 3e 65 6b 47 3e 62 07 1e be
       0.17835616 0.26429415 0.19474562 -0.15432504
000380 85 2e 6e bd aa 68 c0 3d 50 36 0e 3e 26 61 da bb
       -0.058149833 0.09394963 0.13887906 -0.006664413
000390 ab f0 36 bc 1e 2c 17 bb a7 16 f1 3d e6 71 a1 3d
       -0.011165778 -0.0023067067 0.11771899 0.078830525
0003a0 f2 64 27 3e 44 d7 bc 3c 4d da 75 3b 16 9f e8 3d
       0.16347101 0.023051865 0.003751415 0.11358468
0003b0 4f b0 85 3c 62 1c 99 3c 58 28 32 3e 45 3a 83 3d
       0.016319422 0.018690292 0.17398202 0.064075984
0003c0 af 4d 88 3e 4c ae 70 bc d6 40 9f bd 5a c1 98 bd
       0.26621768 -0.014689993 -0.07776038 -0.07458754
0003d0 5a 51 0b 3d b2 a3 d3 bb d2 42 93 3e c6 bb 39 be
       0.03401313 -0.006458723 0.28761917 -0.18138036
0003e0 f3 d6 92 3d f3 6e 6b 3a 68 03 30 3e 52 fa c4 bd
       0.071699046 0.00089810713 0.171888 -0.09618057
0003f0 19 a3 8b 3d af 7a cd bd 23 9b c1 bd ca fe 67 be
       0.06818218 -0.10033166 -0.09453418 -0.22655788

code_layer.bias f4 [128]
000000 95 af 20 bb 3d a1 81 bc 0f eb e3 bb de 53 09 bc
       -0.0024518718 -0.015823955 -0.0069555114 -0.008381812
000010 94 26 4a 3b 7e 46 b2 bb b6 38 2c 3c a3 e8 2e ba
       0.0030845748 -0.005440532 0.010511568 -0.0006672239
000020 60 db 00 3c 75 69 10 3c 73 01 4d bc cb 0f e2 3b
       0.007864803 0.008814205 -0.012512553 0.0068988553
000030 3c da 82 bb 85 d9 1d bb b9 09 28 ba db da bb bb
       -0.0039933007 -0.002408595 -0.000641014 -0.0057328767
000040 ed c1 b8 3a e7 fd e6 bb 5d 9c 25 bc f1 d2 07 bc
       0.001409588 -0.0070493105 -0.010108081 -0.008290038
000050 6c 4f 1d bc 93 bd 73 3b 8a 6a ed 39 f5 fe e8 3b
       -0.009601455 0.0037191852 0.0004528354 0.0071104714
000060 62 0c 99 bb 64 10 40 3c 5a 23 85 3c 09 20 06 bb
       -0.0046706656 0.011722658 0.016252209 -0.0020465872
000070 3e d3 9f 3c a1 90 fe ba 00 fa 65 3b 6e 64 a0 bc
       0.019509908 -0.0019421765 0.0035091639 -0.019579139
000080 d4 25 7d 3b 3f 24 b6 ba 2f 77 db ba 51 a1 92 3b
       0.0038627284 -0.00138963 -0.0016743894 0.004474797
000090 f9 e5 3c bb c0 93 f2 3b 15 4c 70 3c ce 45 ff b9
       -0.0028823598 0.007402867 0.014666577 -0.000486894
0000a0 aa 52 85 3c bf 02 5a bc 05 45 ba 3a ca d3 0a ba
       0.016274769 -0.013306319 0.0014211243 -0.0005295841
0000b0 ea 9f c8 ba 10 6a 36 3b 8c 9b d2 ba a6 11 d0 39
       -0.0015306447 0.0027834214 -0.0016068085 0.00039686
0000c0 0d 70 1d 3c 57 be b3 b8 8e ec ac bc 07 14 3e 3c
       0.0096092345 -8.570839e-05 -0.021108892 0.011601455
0000d0 41 93 49 3b 7c be 0b bb 22 5b f2 ba 31 ef c4 3b
       0.0030757936 -0.0021323254 -0.0018490294 0.006009959
0000e0 ad 84 7a 3c 8e 4e 52 3c af d6 aa bc 4a 05 02 39
       0.015290421 0.012836112 -0.020854322 0.00012399736
0000f0 be 56 81 bb 27 cc 69 bb 34 df 20 bc 75 c7 23 3c
       -0.003947108 -0.0035674663 -0.009818841 0.009996285
000100 4c 64 4e 3a 89 4f 2c 3c 3e 40 8e 3a 0f e3 52 3b
       0.0007873222 0.0105170095 0.0010852886 0.0032178794
000110 87 cc 1b 3c 66 09 a6 bb 99 73 1c bc 6f 2d 87 bb
       0.009509212 -0.0050670383 -0.009549045 -0.004125289
000120 10 06 06 3c e2 d1 4f 3c af 5d da 3b a8 53 fa bb
       0.008180156 0.012684317 0.006664 -0.007639367
000130 67 22 4d bb e7 cd 1a bb 7d 0e 5f 3c 3c ce 8e 3b
       -0.0031301023 -0.0023621263 0.013614294 0.004358081
000140 89 2e 4b bc 48 e0 3c 3b f8 48 41 bb 86 65 5b bc
       -0.012401232 0.0028820205 -0.0029492956 -0.013390904
000150 fd 84 58 3b 99 ed a6 3c c8 46 4f bc 6c f4 61 3b
       0.0033038252 0.020376967 -0.012651153 0.0034477962
000160 56 ac ef 3b a5 fb 2a bb 71 27 27 3b 7b e5 93 3b
       0.007314245 -0.0026089933 0.0025505687 0.00451344
000170 6b 06 42 3c 6a fb 8f bc fa 63 65 3c cf da 13 ba
       0.0118423505 -0.017575938 0.014000887 -0.000564021
000180 e5 4a 2c ba 3e 60 bc 3b 73 57 d3 39 0c 2b 53 bb
       -0.00065724395 0.0057487777 0.0004031021 -0.0032221703
000190 95 01 81 3c 93 7b 5b bb 06 82 a2 3a 84 af cc 3b
       0.015747825 -0.0033490404 0.0012398369 0.006246509
0001a0 a5 c5 8a 3b 55 db c2 3b 12 ba 2a 3a 0a b3 8d 3c
       0.004234987 0.0059465566 0.0006512712 0.017297287
0001b0 7c a1 b3 ba b0 21 87 3b 7c 7e 1f bc 40 1a 22 3c
       -0.0013704742 0.004123889 -0.009734746 0.009893954
0001c0 95 72 56 b9 27 5f e5 bb 99 e2 0b 3c b5 c0 4e bc
       -0.00020451316 -0.0069998684 0.008537912 -0.012619187
0001d0 f7 f3 7f bb 28 b4 c4 3b b0 8c f8 3a 13 a2 31 bc
       -0.0039055326 0.0060029216 0.0018962827 -0.010841864
0001e0 8f de 6d 39 b6 28 8c 3c dd 95 21 bc a9 42 67 3c
       0.00022684991 0.017109256 -0.00986239 0.014115014
0001f0 8e 25 90 bb ec d1 cb bb f5 04 d8 bb 33 a8 0a 3c
       -0.004399008 -0.006220093 -0.006592388 0.008462953

binary_layer.weight f4 [10, 128]
000000 20 b7 ae 3d 3e 63 37 3d 6e 5f e6 3c bc 93 61 bd
       0.08531022 0.04477238 0.028121676 -0.05507253
000010 fa 70 4d be 93 cc 27 be 69 29 b6 bd 0a 6d 54 bd
       -0.20062628 -0.16386633 -0.08894617 -0.0518618
000020 fa 71 af bd f8 42 e2 3d 2d c1 3d bd 36 4a 8c be
       -0.08566661 0.110479295 -0.046326805 -0.27400368
000030 08 16 c6 bd be 57 23 be 29 ca b0 bd 7d 15 74 be
       -0.09672171 -0.1595144 -0.08632309 -0.23836322
000040 43 50 37 be 23 68 83 3d 19 2b b0 3d a6 15 6e 3e
       -0.17901711 0.06416347 0.0860197 0.23250446
000050 99 f3 31 3d 1a 4c 55 be 63 2a 20 be 05 74 20 bc
       0.043445203 -0.20829812 -0.15641169 -0.009793286
000060 51 57 31 be b1 c9 c8 3c b2 f1 00 3e 0c 4a 1f 3e
       -0.17318465 0.024510236 0.125922 0.1555559
000070 c2 b2 06 3e 86 ee 4b bc c7 52 88 3d f5 7c 19 be
       0.13154128 -0.012447005 0.066564135 -0.14989074
000080 f0 f1 b6 3c 83 2c 90 bd 0b 7b 12 bb e0 f6 3a be
       0.022332162 -0.0703974 -0.0022351171 -0.18258238
000090 a8 b5 57 bc cd 59 60 bd 48 f9 17 3c 84 f4 0c be
       -0.013165869 -0.05477314 0.009275742 -0.1376515
0000a0 1d 8d 2a be 23 fd 4d be f3 62 2b 3e b5 cd 36 3e
       -0.16655393 -0.20116095 0.16736965 0.17851909
0000b0 ed 97 c5 3d 85 83 97 3d 1f b7 1c 3d 4b 74 67 bc
       0.09648118 0.07398132 0.038260575 -0.0141268475
0000c0 75 37 85 bd 63 33 72 3d 67 cf a4 bd 1a ca 99 bb
       -0.06504718 0.059131037 -0.08047371 -0.004693282
0000d0 f6 41 d2 3d df 1b c8 bd 7c ad 01 be 58 63 34 bd
       0.10266487 -0.09770941 -0.12663835 -0.044040054
0000e0 af a4 52 bd 73 82 4b be 70 c4 95 bd d2 c4 96 bd
       -0.051426586 -0.19873981 -0.07312858 -0.07361759
0000f0 d6 fb 4c 3c 00 5b 71 bc 7c 35 52 3e 00 b3 c9 3d
       0.012511214 -0.014731169 0.20528215 0.09848595
000100 73 8e c8 3d 36 a1 10 3e 29 23 6d 3d 0a 5b 68 3e
       0.09792795 0.14123997 0.05789486 0.22690979
000110 8c ea 35 3e dd f0 11 bb cd 99 be 3d d6 8c 19 3e
       0.17765254 -0.002226881 0.09306679 0.14995131
000120 47 14 b8 3c 1e 43 de 3d 0a 4c 56 bd 08 59 19 3d
       0.022470606 0.10852645 -0.05231861 0.037438422
000130 5c b5 0e 3e aa e2 08 3e 94 22 fc 3c 68 43 b0 3d
       0.1393637 0.13367715 0.030778207 0.08606607
000140 b1 57 d3 3d 9d b3 22 3a dc 6d ea 3d e3 72 12 3d
       0.1031946 0.0006206574 0.11446735 0.035754096
000150 96 62 f2 bd bf 1d ee 3d 21 9a 83 be 02 3b 3e 3d
       -0.1183521 0.11626767 -0.2570353 0.046442993
000160 86 22 85 bd f2 65 d0 3d 8d 33 45 3e ab f9 40 be
       -0.065007254 0.101756945 0.19257946 -0.18845241
000170 4a 41 00 bc f9 af 14 be a8 48 c9 bd 64 b2 5f 3d
       -0.007828066 -0.14520253 -0.09828311 0.054613486
000180 ed 6a 8a be 28 ec f8 3d e8 0f d9 3c a3 df 00 3e
       -0.27034703 0.12154418 0.026496843 0.1258531
000190 69 81 f2 bc c5 bf 19 3e 76 67 de 3d 3c 4d 09 be
       -0.029602723 0.1501456 0.10859577 -0.13408369
0001a0 46 bb 08 3d 37 22 9c bc 3e ad af bd 5c a3 94 bc
       0.033381723 -0.019059284 -0.08577965 -0.018144302
0001b0 08 2e 3a be a6 86 e1 bd 21 a5 f9 bd 02 f0 8a be
       -0.18181622 -0.1101201 -0.12189699 -0.27136236
0001c0 a0 65 82 bc 24 24 1c 3c 23 81 d3 bd 4f 01 5d be
       -0.0159176 0.009530101 -0.10327365 -0.2158253
0001d0 be 04 a2 bd 6a fb 0c bd 32 15 59 3e 63 d8 45 be
       -0.07911061 -0.034419455 0.21199492 -0.19320826
0001e0 74 18 be bd 70 b4 55 3e 38 3e ea 3d 47 67 03 be
       -0.09282008 0.20869613 0.114376485 -0.12832366
0001f0 f6 c7 9f 3c 98 d9 0c bd e1 3e 9b 3c d4 74 3d 3d
       0.019504528 -0.0343872 0.018950881 0.046253994
000200 3f 08 8d 3d 96 af d0 bd 04 c2 05 bd 78 99 9d bd
       0.068863384 -0.1018974 -0.03265573 -0.076952875
000210 ca 67 9b 3d 26 ab 24 3e ff 94 e5 bd 8e 8c df 3c
       0.075881556 0.16080913 -0.112100594 0.027288701
000220 f6 d0 05 3e 33 74 09 3e 4e a1 cd bc 73 46 63 bb
       0.13067994 0.13423233 -0.02510133 -0.0034679442
000230 e9 a1 76 bd 45 3c f6 bc a0 74 51 3e 52 18 e9 bd
       -0.060213003 -0.030058036 0.20454645 -0.11381592
000240 d7 35 68 3e b2 a4 35 3e 44 ba 67 bd cc ea a0 3d
       0.22676788 0.17738608 -0.05657412 0.07857284
000250 78 c1 02 3e ab 64 c9 bb f5 a9 c8 bd 87 47 2f be
       0.12769115 -0.0061460338 -0.09798042 -0.1711713
000260 42 ab 05 3e 8e c3 7c 3e 05 8f d2 3c be 87 36 3d
       0.13053611 0.24683973 0.025702963 0.044563048
000270 d4 21 af 3d c0 ca 8f 3d 56 ab 10 bd aa d3 b6 3c
       0.08551374 0.07021093 -0.03531965 0.022317726
000280 12 aa 89 bb a4 c1 44 bd e5 ee 13 be c5 d1 15 be
       -0.004201182 -0.048036233 -0.144466 -0.14630802
000290 8b fe c0 3c b0 48 89 3b e5 11 88 be 1b d4 a9 bd
       0.023558876 0.004189573 -0.26576152 -0.08292409
0002a0 74 09 39 3d 92 6f 2e 3b 96 ed ef 3b c3 90 05 3d
       0.04517503 0.0026616794 0.0073220236 0.03260876
0002b0 d1 15 f7 3c 75 28 95 3c 10 61 83 bc 83 35 98 bc
       0.03016177 0.018207768 -0.016037494 -0.018580204
0002c0 09 3c d9 3d 8c 44 64 3d 69 bd 87 bd 4c 0e 0d bd
       0.10607154 0.055729434 -0.06627924 -0.034437463
0002d0 b8 9c 5d be c5 fb 71 3e 4f 1e 05 3e d7 f8 44 3d
       -0.21641815 0.23631199 0.12999843 0.048088875
0002e0 0d 0b 3a 3d 41 36 06 3d d6 ff 82 bd 13 24 0e 3e
       0.045420695 0.032766584 -0.06396453 0.13880949
0002f0 57 bd 38 be 5d 7a 04 3e 5c e9 71 3e 3a 43 a2 bd
       -0.18040977 0.12937303 0.23624176 -0.07922979
000300 09 35 a3 3c 07 a3 5f 3e e9 4c 2a 3c 86 9a 07 3e
       0.01992275 0.21839534 0.010394313 0.1324254
000310 70 8f 04 be 88 fe c4 bd d4 fd 8d bd a6 af ec 3d
       -0.12945342 -0.096188605 -0.069331795 0.1155694
000320 86 bb 88 be 4b fd e8 bd 87 07 f7 bc 96 1d 10 3e
       -0.2670557 -0.11376437 -0.030154957 0.14073786
000330 63 54 4f 3c 63 d3 0a 3e 5f e6 19 be ab d6 82 3d
       0.012654397 0.135572 -0.15029286 0.06388601
000340 82 6b 79 38 25 9d 2e 3d 05 7b 54 be ae 54 33 3c
       5.946635e-05 0.042630333 -0.20750053 0.010945482
000350 48 af 40 bd e0 08 1c bd 90 19 36 3e 22 f1 2e 3d
       -0.04704216 -0.0380944 0.17783189 0.04271043
000360 6f 8e e6 bd 1c ec 98 bc 28 4a ae bd bf c3 b4 3d
       -0.11257636 -0.018667273 -0.08510238 0.08826398
000370 a6 e4 85 3b f7 c7 8b 3d 0b ec a8 bc 66 b7 9b 3d
       0.004086095 0.0682525 -0.020620367 0.0760334
000380 9e 7e 22 3e 54 57 72 bd 9f cb 1b 3e 14 be 97 3b
       0.15868613 -0.059165314 0.15214394 0.0046308134
000390 25 c4 1e bd 55 67 b8 bd c5 54 4f bd 54 56 5c bd
       -0.038761277 -0.09004084 -0.050617952 -0.053793266
0003a0 0a 06 37 3e c3 44 f3 bb a6 ef 22 be 04 24 8c 3d
       0.17873397 -0.0074239685 -0.15911731 0.06842807
0003b0 c2 7c a8 bd f2 f4 c3 bd d8 c9 5e be 49 6c a7 3d
       -0.08226921 -0.09568204 -0.21756685 0.08174951
0003c0 91 85 66 bd 7c 60 23 be 21 98 de bd 9b a7 6f be
       -0.056279723 -0.15954775 -0.1086886 -0.2340378
0003d0 90 c2 3d bd 84 ed 84 3d aa a4 11 be 64 0f 8b bd
       -0.046328127 0.06490615 -0.1422297 -0.06790045
0003e0 ff 5f 3e be c2 ae 2f 3d fc 0f d5 bd 7d 73 f1 bc
       -0.18591307 0.04289127 -0.104034394 -0.029474014
0003f0 01 fc 0e bd 9e 3a 3b 3e 0f 6c d6 bd 56 10 80 3e
       -0.0349083 0.1828408 -0.10469829 0.25012463

binary_layer.bias f4 [10]
000000 d4 82 27 3b 79 9f 5b 3b 8b 71 35 bc e4 c9 95 3b
       0.0025560157 0.00335118 -0.011074434 0.0045711864
000010 0d a1 80 bb 58 fa 45 3c 63 b5 a3 bb 52 fd 19 bb
       -0.0039254487 0.012083612 -0.004995988 -0.0023496938
000020 ff fa 94 3b 1a 83 11 3b
       0.0045465226 0.0022203387

rnn.weight_ih f4 [384, 10]
000000 3a 0b be 3d ff 0c 9e 3d fc 9a 39 3e c0 95 8a 3d
       0.09279485 0.077173226 0.18125528 0.06766844
000010 e1 73 80 bd 77 44 f6 3d f2 07 e5 bc 74 a1 b5 3d
       -0.06272102 0.120247774 -0.02795789 0.08868685
000020 fa e2 37 3d a1 07 97 bc ab 3d 1e 3e 17 9d 5b 3c
       0.044894196 -0.018436255 0.15453212 0.013404152
000030 0c 5c ba 3c 08 20 d2 3d fc 7b 97 3d 49 37 be 3d
       0.02274897 0.10260016 0.07396695 0.092878886
000040 ee e3 9d 3a 28 01 9c 3d c7 fe ea bc c9 27 a4 3d
       0.0012046078 0.07617408 -0.02868594 0.08015401
000050 b9 9b 74 3d 73 fa a7 bd f3 3c 08 3d 98 77 34 3e
       0.05971882 -0.08202066 0.03326125 0.17623746
000060 5c 3f 8c 3d 47 92 07 3c f2 1a e9 3d fd 9b 90 3b
       0.06848022 0.008274621 0.113820925 0.0044131265
000070 b2 d8 27 3d a5 06 ec 3d a4 66 8b 3d 4e e1 6d bd
       0.04097814 0.11524705 0.068066865 -0.058076195
000080 73 28 b5 3d 62 16 b5 3c 56 f6 cc 3c 73 43 0b 3e
       0.08845606 0.0221054 0.025019806 0.13599949
000090 90 2f 5e 3d 6c 46 ba 3c d5 22 8a 3d 3e 65 11 bd
       0.054244578 0.022738658 0.06744925 -0.035496943
0000a0 eb 84 6a 3d c7 c6 84 bc e0 e6 13 3d 10 da a8 bc
       0.057255667 -0.016208066 0.03610885 -0.020611793
0000b0 a7 61 e2 bb 8c 98 51 3d 26 19 28 bd f8 f1 c2 3d
       -0.0069086137 0.05117087 -0.04103961 0.09518808
0000c0 ff 58 d1 bd bb c1 bf 3c 1a d1 85 3d b7 01 51 3d
       -0.10222053 0.023407808 0.065340236 0.051027026
0000d0 15 36 2f bd 6d a2 bb bd dd 88 8c 3c b6 db 3f 3d
       -0.042776186 -0.0916184 0.017155105 0.046840392
0000e0 87 5b e6 3d ae 8c b2 3d 6d 13 87 bb 90 68 23 3d
       0.11247926 0.08718239 -0.004122189 0.03989464
0000f0 4e 32 1c 3d d4 0e c4 3c e5 5e 86 3d 3a 90 f9 3b
       0.03813391 0.023932852 0.065610684 0.00761607
000100 06 7b 42 bd 1b ca 4c bd cc 14 04 3d 4b 0e 88 3d
       -0.047480606 -0.04999743 0.032246396 0.06643351
000110 6a 11 4a bd d4 54 aa 3d 16 df b0 bc 15 12 cc bc
       -0.049333014 0.08316961 -0.02159075 -0.024910966
000120 4b 9c 79 bd fd 41 c3 3d 62 79 35 be e5 a1 c9 bd
       -0.06094007 0.09534071 -0.17722085 -0.09845332
000130 c9 62 c4 bb be 78 48 3d 7b 64 87 bc 84 68 fa 3d
       -0.0059932214 0.048943274 -0.016527405 0.12226966
000140 49 01 7b bc a8 54 dd 3d bf 91 bb 3d a1 33 5a 3e
       -0.015320131 0.108071625 0.09158658 0.21308757
000150 ac 99 c8 3c b9 e4 c3 bd 26 f1 32 be c3 3a 89 bd
       0.024487339 -0.0956511 -0.17474803 -0.06700661
000160 8a 50 ff 3c 2f 29 18 3e 74 f8 f9 bd f6 26 10 bd
       0.031166334 0.1485946 -0.12205592 -0.035193406
000170 45 cc 9b bd de a9 0f be dc 1f f0 3d ac be d9 bc
       -0.07607321 -0.14029643 0.11724827 -0.026580177
000180 1a 4b d8 bd a9 eb 3a 3d 98 68 ad bc db 32 21 3d
       -0.105611995 0.0456349 -0.021168038 0.03935514
000190 be 1f 77 3c d0 fe 81 3b 97 f4 3a 3e 61 e5 49 3d
       0.0150832515 0.0039671436 0.18257366 0.04929102
0001a0 71 34 ce 3d 95 de b0 bd 11 34 aa 3c 25 5c b0 3d
       0.10068596 -0.08636204 0.02077678 0.08611325
0001b0 24 ef 7f 3d 89 75 d7 3c bb 53 a5 bd 18 8f 54 3c
       0.06248392 0.026301162 -0.08072611 0.012973569
0001c0 fe ec 36 3c b7 53 5b 3d fb 34 c5 3d ae 6b 66 bd
       0.011164902 0.053546634 0.09629246 -0.056255035
0001d0 18 9a cb 3d 68 35 21 3d 97 9f 75 3d a0 e2 98 3c
       0.099415004 0.039357573 0.05996665 0.01866275
0001e0 19 c9 b1 3c a0 86 9b bc b6 fc 44 3d 9f 93 03 bc
       0.021702336 -0.018985093 0.048092566 -0.008030801
0001f0 e4 39 e7 3d 25 b3 22 3d a4 3b bb 3d a4 6f 49 bc
       0.11290339 0.039721627 0.09142235 -0.012294684
000200 c9 72 92 3d 10 c5 8d 3c b5 4e ca 3d bc 35 d0 3d
       0.071508 0.01730588 0.098782934 0.10166499
000210 8f ad 94 3d c0 69 c3 bd ce 41 d1 3c 78 a6 4f 3d
       0.07259666 -0.095416546 0.025544073 0.050695866
000220 7f 72 c3 bc d2 fd 04 bc 0b c9 98 3d 3b d9 a9 3d
       -0.023858307 -0.008117156 0.07460221 0.082933865
000230 fd 44 cf bc 29 94 ca 3c 1e 72 c0 3d c5 59 0c 3e
       -0.02530145 0.024728851 0.09396766 0.1370612
000240 2d 3e 94 3d e7 fe f7 3c 33 7f 53 bc 0c 25 0c be
       0.072384216 0.030272914 -0.012908745 -0.13686007
000250 a1 dc 6d 3d 80 9a 3d 3e 7c f9 27 3e 8f cd 8a bc
       0.058071736 0.18515968 0.16403764 -0.016943721
000260 fc 60 2b bb bf 1e 59 bd 2a bf b5 3d db ef 69 3d
       -0.0026150336 -0.053007837 0.08874352 0.05711351
000270 b0 c8 40 be 46 b0 00 3e 9d 96 97 3d bf f2 d9 3c
       -0.18826556 0.12567243 0.07401774 0.026605008
000280 2c 24 93 bb 64 2f 01 bc b8 35 25 bd b0 58 a1 3d
       -0.004490396 -0.007884834 -0.040334433 0.07878244
000290 be 64 00 3e 26 74 f9 3c 31 17 22 3d 93 b4 ec 3d
       0.1253843 0.030450892 0.0395729 0.11557879
0002a0 ac 8e 67 bd 17 29 9a 3b 5c ba e7 3d 9d f1 13 bd
       -0.056532547 0.0047046053 0.11314842 -0.036119092
0002b0 7b b8 41 bd 4a f6 61 3e f5 e3 fc 3d b3 ba 95 bc
       -0.047295075 0.22066608 0.12348167 -0.018277502
0002c0 c8 f0 af 3d 32 c6 2f bd 1f 0c e8 3c f0 dc 9e 3d
       0.08590847 -0.042913623 0.028326092 0.07756984
0002d0 71 2e 9f 3d 0f 4c d5 3c 6e 05 a4 bc 43 96 c8 bd
       0.0777253 0.026037244 -0.02002212 -0.09794285
0002e0 a6 0c 06 3d 5e ef 17 3c 00 fa 09 3d 83 22 34 bd
       0.032726906 0.009273378 0.033685684 -0.043978225
0002f0 85 7e 1f bd 09 3e 2e 3d 13 30 0b 3e fa bb 81 bd
       -0.038939018 0.04253963 0.13592558 -0.06334682
000300 17 17 e1 bc bf 69 10 3e 94 8e 25 3e 55 a2 c2 bd
       -0.02747683 0.14102839 0.1616767 -0.09503619
000310 3a d9 8d 3d 33 44 43 3c 02 1d 9a 3c 90 64 95 3d
       0.06926198 0.011918115 0.01881266 0.072945714
000320 fe d0 7f bb d0 23 ab 3c 83 ca 0b 3a c8 48 91 3d
       -0.003903448 0.0208911 0.0005332606 0.0709396
000330 88 01 ed bc 41 99 d7 3b 4f 87 11 bd 1d c4 da bd
       -0.028931394 0.0065795486 -0.03552943 -0.10681937
000340 90 2d e4 3c 46 42 20 3d 41 c4 dc 3c 02 09 b5 bd
       0.027853757 0.039125703 0.02694905 -0.08839609
000350 59 59 38 3e 0c 77 b7 3d 65 86 ed bb 90 62 0a 3c
       0.18002833 0.08958253 -0.007248687 0.008446351
000360 ec 1a 63 3d 6a 20 77 3d 56 55 80 3e 68 dc d9 3d
       0.055445597 0.060333647 0.25065106 0.10637742
000370 1f ac 35 bd d0 f2 99 3b 99 5f 01 be e6 af 1b bd
       -0.0443536 0.004698135 -0.12634124 -0.038009547
000380 70 7f c2 3b 6e 36 4a 3d e5 8c 29 bc 03 8b 48 3a
       0.005935602 0.049368314 -0.010348533 0.0007650109
000390 fe 37 ca 3d 4e 85 ea bd df c9 ce 3d c8 f6 99 3b
       0.09873961 -0.11451207 0.100970976 0.004698608
0003a0 6b e0 b0 bc a1 bf 95 bd 37 6f b2 bd 24 b1 86 bd
       -0.021591386 -0.07311941 -0.08712619 -0.06576756
0003b0 c0 f6 83 3c 75 af 0d 39 2e 2e 83 3d e2 7c c8 3d
       0.01610887 0.0001351217 0.064052925 0.097894445
0003c0 1a 1b b5 bd 23 86 44 bc 6b c6 c8 3d 8d f0 7f 3d
       -0.0884306 -0.011994871 0.0980347 0.062485266
0003d0 b8 d3 0f 3d 71 fe c6 3d af 03 b1 3d 18 74 b6 bb
       0.03511402 0.097164996 0.08643281 -0.0055680387
0003e0 d0 64 8b bc d5 1e d4 3d e1 6f fb 3c bb a6 62 bc
       -0.017015845 0.10357443 0.030692996 -0.013833697
0003f0 a8 95 27 3e 36 30 cf bd 3f 0a 1d 3d 69 de 90 3d
       0.16365683 -0.101166174 0.03833985 0.07073671

rnn.weight_hh f4 [384, 128]
000000 ef 27 32 bc 67 8d 24 bd c8 f3 b2 bd ee 89 2f 3d
       -0.010873779 -0.040173914 -0.08737904 0.04285615
000010 33 55 62 3d 2b 48 c6 bd 1d d9 56 bd 4e 22 86 3d
       0.055257034 -0.09681734 -0.05245315 0.06549512
000020 54 fc 5d bc d9 83 76 bd 54 0a 10 3d 1c 1a 53 3d
       -0.013548929 -0.060184333 0.0351661 0.05153857
000030 80 16 ad bc aa ec 31 bb 14 77 1b bd ec 14 43 bd
       -0.021128893 -0.002714912 -0.03795536 -0.047627375
000040 90 9b 42 bd f7 9e b9 3d a6 af 95 bd e1 54 94 3d
       -0.047511637 0.09063523 -0.07308893 0.07242752
000050 4c 2b 59 3d ed a2 6c bd 46 fb 0c ba a9 21 d7 3c
       0.053019807 -0.057772566 -0.0005378019 0.026261168
000060 4d 03 df 3d 56 ad c0 bd 8a c0 be 3d cc 7a c4 3d
       0.108893014 -0.09408061 0.09314068 0.09593734
000070 15 ec 7a 3d 0f 0e 23 3d 28 12 3e bd 48 1e 26 3d
       0.0612603 0.03980833 -0.046404034 0.040556222
000080 5d a5 88 bc a1 58 17 bd 09 82 a5 3d b5 6d 3b 3c
       -0.016680414 -0.036949757 0.08081443 0.01143973
000090 c3 10 c0 bc f9 fa 87 3d 8a ac 8d 3c 16 29 12 3c
       -0.023445493 0.06639666 0.017294187 0.008920928
0000a0 4d 5f 10 bd 80 0e 56 37 8e a9 17 bc 29 a4 b8 3c
       -0.035247136 1.275877e-05 -0.009256734 0.022539215
0000b0 fd c9 c7 3d 2e cd c9 3b 28 7f 11 3d da fc 0f 3d
       0.09755323 0.0061584925 0.035521656 0.035153247
0000c0 4e ee 69 bd 33 eb 09 be 6e b1 13 bd f0 0b 35 3c
       -0.05711203 -0.13468628 -0.036057882 0.011050209
0000d0 c8 9f 56 3d 7b fc e8 3b 26 0a 97 bd ac 59 7a bb
       0.052398473 0.007110176 -0.073749825 -0.0038200421
0000e0 31 b5 42 bd 70 96 69 3d 6e 37 1a 3c 24 bc 0b 3e
       -0.04753608 0.057028234 0.0094126295 0.13645989
0000f0 f3 2d 6c 3d a6 7d 87 3c 1f 5b 42 bc 71 4d e4 3d
       0.057661008 0.016539406 -0.011862545 0.11147583
000100 bc 6a 41 3c 0f ce 83 3d 1d 9b 2f 3d 4f 71 2b bc
       0.011805233 0.06435787 0.042872537 -0.010464027
000110 68 7d 9d 3b 66 0f d8 3c c5 e6 10 bd ce b8 1d bd
       0.0048062094 0.02637453 -0.03537633 -0.03850632
000120 79 92 fe bc ff 39 c9 bd 59 52 ba 3c 38 b6 bd bc
       -0.031075703 -0.09825515 0.022744345 -0.023158178
000130 42 c9 0b 3d 08 30 2e bd 9c d9 b6 bd d5 7b 3c 3d
       0.03412748 -0.042526275 -0.089282244 0.046016533
000140 40 05 89 bc 10 31 76 bc 9f a2 64 bd 0c 8a a3 3d
       -0.016726136 -0.015026346 -0.05581915 0.07985315
000150 50 7f 32 bd af b2 b0 b9 f8 43 64 bd af d2 0f 3e
       -0.043578446 -0.00033702466 -0.055728883 0.14045213
000160 13 76 21 be 03 bc 37 3d e4 3c 81 bc 08 80 d4 3c
       -0.15767698 0.044857036 -0.015776105 0.025939956
000170 d3 7d 20 3d 0c f3 0f 3d 0a b0 91 3a 69 d3 23 bd
       0.039182495 0.035143897 0.0011115086 -0.03999654
000180 e7 91 d6 bd e9 e5 a8 3c f0 ac 48 3d c0 f7 e4 bd
       -0.104770474 0.020617442 0.04899305 -0.11180067
000190 d0 94 bb 3a 64 1c 5f 3d 22 8c 2b 3d 6a 2e 8e 3c
       0.0014311317 0.054470435 0.041881688 0.017356116
0001a0 fd 76 78 bd a7 d0 87 bd e7 bf 46 bd 9a 4d e4 bc
       -0.06066035 -0.06631594 -0.048522856 -0.027869035
0001b0 11 e9 5b bd 22 c5 3f 3d 45 8f 4f 3d 36 cf 86 bd
       -0.053689066 0.04681886 0.05067374 -0.06582491
0001c0 29 d5 4b 3d de fd 0c bd 7e ce 14 3d a0 ce c7 3c
       0.049763832 -0.034421794 0.03632974 0.024390519
0001d0 08 68 bb bd 15 2d a3 bd 3e 85 85 bd 11 db 6f 3d
       -0.09150702 -0.07967583 -0.065195546 0.058558527
0001e0 cb db 90 3d 9c f5 8e 3d 95 d3 31 bd b2 38 9b b9
       0.07073172 0.0698044 -0.04341467 -0.00029606145
0001f0 87 8e a5 3d a5 7f 85 3d dc 8b c9 bb cb db 50 3a
       0.080838256 0.06518487 -0.0061507057 0.0007967322
000200 e9 a9 33 3d 83 b1 36 bb d4 1a c4 3d 0a 64 ae 3c
       0.04386321 -0.0027876801 0.095754296 0.021287937
000210 cc f3 11 3c bf a0 8e 3c 59 f4 92 bd 35 79 cb 3b
       0.008908223 0.017410634 -0.07175512 0.0062095174
000220 71 52 8a 3b 20 f1 35 3d eb 91 57 bd 51 1b 27 be
       0.0042212536 0.044419408 -0.052629393 -0.16319014
000230 82 f6 18 3c 0f 8d ca bd 47 8b 3a 3d ad 2c a5 3d
       0.009336116 -0.09890186 0.04554298 0.08065162
000240 86 a7 a9 bd 21 37 f8 3c 56 81 f6 bc fb 89 cf bc
       -0.08283906 0.030299725 -0.030090969 -0.025334349
000250 ec 9b d3 3a dd 93 cb bd da c0 39 3d 2a 51 42 be
       0.0016144491 -0.09940312 0.045349933 -0.18976274
000260 ef 4c c1 bc 1c 1a 12 3b a6 ab d2 3c 66 3f c6 3d
       -0.023596255 0.0022293394 0.025716614 0.09680061
000270 08 d5 b9 bb e3 fa 4b bb d7 e3 3e bd 68 7b 7f bd
       -0.0056711473 -0.0031124882 -0.046604004 -0.06237355
000280 97 7e d9 bc 17 27 c3 3d 4a bb cf 3d 0c 9e e7 bd
       -0.02654962 0.0952894 0.101431444 -0.11309442
000290 25 bb a7 bc 48 82 be bd c9 59 f0 3d 37 96 82 bc
       -0.02047498 -0.09302193 0.11735875 -0.015940769
0002a0 32 4e 47 bd 22 39 36 bd 84 dd ad bc 70 33 19 bc
       -0.048658557 -0.04448808 -0.021223791 -0.009350643
0002b0 bb 8b 00 bc 26 13 14 3d 47 cb c6 bd 8d 1c 3c be
       -0.007845814 0.036151074 -0.09706741 -0.18370266
0002c0 e7 6b 2e 3d be a3 ce 3c 88 99 22 3c c4 b0 6c 3d
       0.042583372 0.025224563 0.0099243 0.057785764
0002d0 71 20 90 3c ad 45 4f bd a5 18 e5 3c a5 3e 34 bc
       0.017593594 -0.050603557 0.027965853 -0.011001264
0002e0 92 bf 57 3d df 3a 05 bd 1a a8 71 bc ae c2 4a bc
       0.05267293 -0.032526847 -0.014749551 -0.012375517
0002f0 28 fe ac bb e2 7b 5b bd 55 3c 9c 3d 04 2c 11 3d
       -0.005279321 -0.05358494 0.07628695 0.035442367
000300 74 6a 22 3e ab 3c 58 bc 7f 6f 9a 3d 33 47 6c bd
       0.15860921 -0.013198058 0.075407974 -0.05768509
000310 14 5e 23 3d 36 7c 0b bd 60 37 d8 bb d4 87 fe bb
       0.03988464 -0.034054004 -0.006598398 -0.007767657
000320 02 d0 4b bc 2b f1 4a 3d 27 71 fe bd b8 09 d0 bc
       -0.01243973 0.049546402 -0.12423926 -0.02539526
000330 4e 2b 97 3d 5b 8e be 3d 5d b4 73 3d ab 3a 77 bd
       0.073813066 0.09304496 0.05949818 -0.060358685
000340 4b 59 9a 3d 53 35 92 bd 2f 03 b8 bd 26 44 ba bd
       0.075365625 -0.07139077 -0.08984982 -0.090950295
000350 73 93 e5 bb 58 7d f5 bd e0 fb bd 3d a6 99 f3 bd
       -0.0070061027 -0.11986798 0.09276557 -0.118945405
000360 fb 71 39 3d 91 ac 6b 3d 43 5e 90 bb 0a d0 b7 3c
       0.045274716 0.05753762 -0.004405768 0.022438068
000370 0a 26 3d bd 88 db 80 bd 5e b1 52 bc 26 c9 2d bc
       -0.046178855 -0.06291872 -0.01285967 -0.01060704
000380 a7 a2 8f bd d2 58 ce b9 cd 97 23 bb 99 63 9c b9
       -0.07013445 -0.00039357558 -0.0024962306 -0.00029828845
000390 55 86 8c 3d ee 82 be 3d 77 b4 64 3d 83 50 38 bd
       0.06861559 0.093023166 0.055836167 -0.044998657
0003a0 81 d1 dc bd 03 5b dd 3d e6 07 97 3d 38 5c cf bc
       -0.10782147 0.10808375 0.073745534 -0.025312528
0003b0 cf 37 bd ba 48 02 bb bd 33 a7 88 bc fb f6 28 bd
       -0.0014436188 -0.091312945 -0.01668129 -0.041251164
0003c0 c5 87 16 be 0f ce 59 3b 20 3c a8 3d 46 94 1c bd
       -0.1470023 0.0033234393 0.08214593 -0.038227342
0003d0 7e fc d4 bb 87 fc 04 3d a8 80 a0 bc f9 b5 11 3d
       -0.006499826 0.03246739 -0.019592598 0.035573933
0003e0 6e 78 0a be 0b 33 7e 3d e4 10 00 3d 35 15 f2 bc
       -0.13522503 0.062060397 0.03126611 -0.029551128
0003f0 09 93 29 bd b7 22 8b bd 83 89 2d 3c f8 c5 cf bd
       -0.04139999 -0.06793731 0.010591867 -0.101451814
