Models/Unimodal/models_checkpoint.pth (torch, 714256 bytes, 26 tensors)

code_bias f4 [10]
0	0xbf4f6c6d	-0.8102482
1	0xbf53b104	-0.8269198
2	0x3fb25db7	1.393485
3	0xbf99f7d7	-1.202876
4	0xbf893267	-1.0718507
5	0xbf5fad60	-0.87373924
6	0x3eabbf1e	0.33544248
7	0xbf5f4f87	-0.87230724
8	0x3f5b1cf6	0.85591066
9	0x3e39543b	0.18098538

audio_layer.weight f4 [128, 128]
0	0x3ddf1ab9	0.10893769
1	0x3d0f022c	0.03491418
2	0x3a5dac9f	0.00084562035
3	0xbc4d4773	-0.012529242
4	0x3de8c965	0.11366538
5	0x3c5a90e0	0.013340205
6	0x3e54461e	0.20729873
7	0x3c0ae201	0.008476735
8	0x3d7f0b99	0.06226692
9	0xbe236200	-0.15955353
10	0x3ca73926	0.020412993
11	0xbd986bee	-0.07442461
12	0x3cfeea45	0.031117568
13	0x3e0ed2f4	0.1394766
14	0x3d569001	0.052383427
15	0x3c3e9593	0.011632341
16	0x3d5f7e1b	0.054563623
17	0x3cddbf28	0.02706869
18	0x3db2e677	0.08735364
19	0xbd3b424c	-0.045717523
20	0xbdcb5016	-0.099273846
21	0xbde9b06d	-0.11410604
22	0x3d97aad9	0.074056335
23	0x3d407ce6	0.046994112
24	0x3cebd856	0.02878968
25	0xbd460b60	-0.04835069
26	0x3d61a7af	0.055091556
27	0xbcb153a1	-0.021646323
28	0xbe0cde13	-0.1375659
29	0x3c88b7dd	0.016689235
30	0xbda5936b	-0.08084758
31	0x3db9b60a	0.09067924
32	0xbca6e119	-0.020371007
33	0x3d87d848	0.06633049
34	0xb9251072	-0.00015741753
35	0x3d7b6bff	0.06138229
36	0xbd871b95	-0.06597058
37	0x3e038708	0.12844479
38	0x3e393383	0.18086056
39	0xbcf92059	-0.030410932
40	0x3dbb0a06	0.09132771
41	0xbd1a6677	-0.037695374
42	0xbe414701	-0.18874742
43	0xbc85639b	-0.016282847
44	0x3e124010	0.1428225
45	0xbdc8b786	-0.09800629
46	0xbd4e8ddc	-0.050428256
47	0xbd8f56c2	-0.069989696
48	0x3d19cbb2	0.037547775
49	0x3bcbbede	0.0062178215
50	0xbe26acc7	-0.16276847
51	0x3e11a252	0.14222077
52	0x3ddc75da	0.10764666
53	0x3d478964	0.04871501
54	0xbdb29499	-0.08719749
55	0xbdc19e26	-0.094539925
56	0xbe083c33	-0.13304214
57	0xbc2d9891	-0.010595457
58	0x3c1ee5ba	0.009698326
59	0xbb7f7f55	-0.0038985808
60	0xbdbc5e2b	-0.091976486
61	0x3c73820f	0.014862551
62	0x3db07266	0.0861557
63	0x3d49109f	0.049088117
64	0xbe647c46	-0.22313032
65	0xbd19de77	-0.037565675
66	0xbd2ea597	-0.042638388
67	0x3d132deb	0.035932463
68	0x3c5b2ae1	0.013376922
69	0xbde9c682	-0.114148155
70	0xbe1268b8	-0.1429776
71	0xbd84e67c	-0.06489274
72	0xbda9c08d	-0.08288679
73	0xbd166fcc	-0.03672771
74	0x3d312afc	0.043253884
75	0xbd5faa39	-0.054605696
76	0x3d9e02bb	0.077153645
77	0xbe48373f	-0.19552325
78	0x3e1a49d3	0.15067224
79	0x3d8c42bb	0.06848665
80	0x3d028f50	0.031874955
81	0xbda6d0e1	-0.08145309
82	0xbbeac3ca	-0.007164453
83	0x3d3bf5e7	0.045888808
84	0xbca65977	-0.020306332
85	0x3d5e09ce	0.05420857
86	0x3e24af1d	0.16082425
87	0x3dba1575	0.09086124
88	0x3ce178c0	0.027523398
89	0xbd43b157	-0.047776546
90	0x3d9cca1e	0.07655738
91	0x3d4c1b57	0.04983076
92	0x3ddd54c6	0.10807185
93	0xbe276ec1	-0.16350843
94	0xbe160b67	-0.14652787
95	0xbe2b1c28	-0.1670996
96	0xbe1040b4	-0.14087182
97	0x3d04d2ec	0.032427713
98	0xbcb721bc	-0.022354953
99	0xbe402763	-0.18765025
100	0xbd74d59c	-0.059774026
101	0xbd36403d	-0.044494856
102	0x3e6afd1c	0.22948116
103	0xbd45fae0	-0.048334956
104	0x3cd245b5	0.025668005
105	0xbd44e816	-0.048072897
106	0x3cb6c188	0.02230908
107	0xbc53286d	-0.012888056
108	0xbe1c3a24	-0.15256554
109	0x3d00b475	0.031422097
110	0x3d7446a1	0.05963767
111	0xbdded53d	-0.10880516
112	0xbd601127	-0.054703858
113	0xbddc3e1c	-0.10754034
114	0xbca1788c	-0.019710802
115	0xbdd4cfb7	-0.10391181
116	0x3e244cc6	0.16044912
117	0x3ca7d16d	0.020485604
118	0x3de1fe33	0.11034813
119	0xbd41a54d	-0.047276784
120	0xbbd4cf13	-0.0064944117
121	0xbd709703	-0.058737766
122	0xbd76ef41	-0.060286764
123	0xbdb76682	-0.08955099
124	0xbd39f293	-0.045397352
125	0x3d8d895e	0.06910966
126	0xbe57890f	-0.21048377
127	0xbd413a75	-0.04717489
128	0xbe1d6553	-0.15370683
129	0x3e461d55	0.19347127
130	0x3e0384c3	0.12843613
131	0x3d5d2d78	0.05399844
132	0x3dff1c53	0.12456574
133	0x3cfc67bd	0.030811185
134	0x3d8c4595	0.06849209
135	0x3da02658	0.078198135
136	0xbd9a9658	-0.07548207
137	0xbc93b03d	-0.018028373
138	0x3c1b90e0	0.00949499
139	0x3d2d99dc	0.04238306
140	0xbc8edaa5	-0.017438242
141	0x3d9dd51b	0.07706662
142	0x3d35be92	0.044371195
143	0xbc2d2798	-0.010568522
144	0xbd89b212	-0.06723417
145	0xbc98414f	-0.018585829
146	0x3da233d2	0.0792004
147	0x3d108758	0.035285324
148	0x3e182f03	0.14861684
149	0xbda5b0a2	-0.08090331
150	0xbd903972	-0.07042207
151	0x3c1bf097	0.00951781
152	0xbd6bb81d	-0.05754863
153	0xbc9554f4	-0.018228985
154	0x3d485472	0.04890866
155	0x3da3ac86	0.079918906
156	0xbd20750a	-0.039174117
157	0xbc850298	-0.016236588
158	0x3cb6a479	0.022295224
159	0x3bf9929a	0.007616353
160	0x3db01f38	0.085997045
161	0x3dad9d55	0.08477274
162	0xbd07e44a	-0.033176698
163	0x3b0f3d2f	0.0021856537
164	0xbde94d66	-0.11391716
165	0x3d446ff1	0.04795832
166	0xbcdae24c	-0.026719235
167	0x3c063fab	0.008193891
168	0x3c88e34e	0.01670995
169	0x3db528e8	0.08845693
170	0x3d8cc0dc	0.068727225
171	0xbdcfb5f9	-0.101421304
172	0x3c95ca00	0.018284798
173	0x3e318de6	0.17339286
174	0x3d39d557	0.045369472
175	0x3d69b203	0.05705453
176	0xbce8a206	-0.028397571
177	0x3cfd7d93	0.030943668
178	0xbcd9fd01	-0.0266099
179	0x3dd315e1	0.103069074
180	0xbd76d1cd	-0.060258675
181	0xbd2fc2de	-0.04291045
182	0xbd00738e	-0.0313602
183	0xbcd0c9e6	-0.025486898
184	0x3c83ae2f	0.016074268
185	0xbd48ccc6	-0.049023412
186	0xbc27e2a7	-0.010246909
187	0x3dd74361	0.105108984
188	0x3d84e756	0.06489436
189	0xbcde6394	-0.027147092
190	0x3d5075a1	0.05089343
191	0xbd738da9	-0.05946127
192	0xbcc86d87	-0.02446629
193	0x3e103cc6	0.14085683
194	0x3ddc9360	0.10770297
195	0x3d6dbae0	0.058039546
196	0xbd7e844b	-0.062137883
197	0xbdf1e3da	-0.11811037
198	0x39a41f90	0.00031304033
199	0x3c17cf52	0.009265738
200	0x3dc644f1	0.09681118
201	0xbd1b01e1	-0.03784359
202	0x3d806524	0.06269291
203	0x3dc25c13	0.09490218
204	0xbdff6d7b	-0.124720536
205	0xbd147481	-0.03624392
206	0xbea7348b	-0.32657275
207	0x3e2ceab8	0.16886413
208	0xbd1116f1	-0.03542227
209	0x3dc597fa	0.09648128
210	0x3c45a6c1	0.012063683
211	0x3d8dbc7a	0.06920715
212	0xbbb28ffe	-0.005449294
213	0xbddc8c82	-0.10768987
214	0x3aad7659	0.0013234123
215	0x3e2238c9	0.15841974
216	0xbd3cf2bd	-0.04612993
217	0xbd8f88ae	-0.070084915
218	0xbda3ee3f	-0.08004426
219	0x3c87b530	0.01656589
220	0xbe2ae5cb	-0.16689222
221	0xbda8e62c	-0.08247027
222	0xbd47b583	-0.048757087
223	0x3ce61602	0.028086666
224	0xbda35d85	-0.07976822
225	0xbd3d4a9c	-0.04621373
226	0x3da20c69	0.07912523
227	0x3d10ea82	0.035379894
228	0xbd163b2d	-0.03667753
229	0xbda93d16	-0.08263604
230	0x3dd02b55	0.10164515
231	0x3bde5211	0.0067846854
232	0xbd785582	-0.06062842
233	0xbd34f31f	-0.04417717
234	0x3d109334	0.035296634
235	0xbd8c4ce4	-0.06850603
236	0x3d999399	0.07498855
237	0xbd905d2d	-0.07049022
238	0x3d830057	0.06396549
239	0xbce46a44	-0.027882703
240	0x3dee40ae	0.116334304
241	0xbd1e7088	-0.038681537
242	0x3dbb7345	0.09152845
243	0xbd7a7d95	-0.06115492
244	0x3daa45ef	0.0831412
245	0xbe101bf9	-0.1407317
246	0xbccffd83	-0.025389438
247	0xbe0a5cc1	-0.13511945
248	0xbdac044e	-0.083992586
249	0xbd6ae268	-0.057344824
250	0x3d092bdc	0.033489093
251	0xbda0898b	-0.07838734
252	0xbd613960	-0.054986358
253	0x3db335a8	0.087504685
254	0x3c369b23	0.011145386
255	0x3d20c846	0.039253496

audio_layer.bias f4 [128]
0	0x3cb5c07f	0.022186516
1	0x3c19783d	0.009367046
2	0xbb768fcf	-0.0037622338
3	0xbcc56655	-0.024096647
4	0x3a502191	0.0007939572
5	0x3bbe4740	0.0058068335
6	0xbcb1edbc	-0.021719806
7	0x3cc8fe3d	0.024535293
8	0x3bf4ac1f	0.0074668075
9	0x3c5c6a08	0.013453014
10	0x3c889e4e	0.016677048
11	0x3c5455eb	0.012959938
12	0xbc361dfa	-0.011115545
13	0x3bb25292	0.005441972
14	0xb9879884	-0.0002586284
15	0xbc60b419	-0.013714814
16	0xbbf9ad2a	-0.0076195197
17	0x3bcaef8f	0.0061931084
18	0xbc94fbea	-0.018186528
19	0x3ca0d290	0.019631654
20	0x3b910157	0.0044252085
21	0xbd05257c	-0.03250645
22	0xbc499eb7	-0.012305907
23	0x3b1fd9f4	0.0024391385
24	0x3c5d2c4d	0.013499332
25	0xbbace161	-0.0052758907
26	0xbd1100ee	-0.035401277
27	0xbcd5312c	-0.026024424
28	0xbcb6de9b	-0.022322943
29	0x3c76cb30	0.015063092
30	0xbc8da53b	-0.017290702
31	0xbcdb2682	-0.02675176
32	0xbb412836	-0.002947343
33	0xba86080b	-0.0010225786
34	0xbd0a91d0	-0.033830464
35	0x3b17630a	0.0023099803
36	0xbbc46440	-0.005993396
37	0xbd02dc51	-0.03194839
38	0x3cbf556a	0.023356158
39	0xbc56c5c5	-0.013108675
40	0x3b87d68a	0.004145448
41	0xbb6367fe	-0.0034699435
42	0x3bae06b8	0.0053108595
43	0xbc510471	-0.012757407
44	0xbb7c262c	-0.00384749
45	0xbc1b1292	-0.009464877
46	0xbb247545	-0.0025094312
47	0xbb84f0a6	-0.004057008
48	0xbbbcc7cf	-0.0057611237
49	0x3b7257a2	0.0036978503
50	0xbc2fffd8	-0.01074215
51	0xbce28a2f	-0.027653782
52	0xbc08e612	-0.008355634
53	0xbc607c31	-0.013701485
54	0x3a66a28f	0.0008798027
55	0x3cfe7546	0.03106178
56	0x3c879ce8	0.01655431
57	0x3cf816c2	0.03028429
58	0x3bd92c65	0.0066276067
59	0x3c97ed6d	0.01854583
60	0xbbee76b2	-0.007277333
61	0xbc834cdc	-0.01602786
62	0xbbf23ab1	-0.0073922505
63	0x3bb90a40	0.005646974
64	0x3bc61718	0.0060452335
65	0xbc276c4b	-0.01021869
66	0x3c8ad70c	0.016948245
67	0xbb2fa410	-0.002680067
68	0xbc3f4641	-0.011674465
69	0x3cb3155c	0.02186077
70	0xbcc2bf31	-0.023772808
71	0xbc7524f7	-0.014962426
72	0x3b746743	0.0037292994
73	0x3b531bfb	0.0032212723
74	0xbc5f0c1c	-0.013613727
75	0xbb799b1d	-0.003808684
76	0xbc52b65c	-0.012860861
77	0xb969e9b1	-0.00022307668
78	0xbc0e8e1b	-0.008700873
79	0xbc285412	-0.01027395
80	0xbc62b7ac	-0.013837736
81	0xbbabef97	-0.005247067
82	0xba56c0db	-0.000819219
83	0x3c71792d	0.014738363
84	0xbca3b420	-0.019983351
85	0x3bff50a5	0.007791596
86	0xbb3c9fe8	-0.0028781835
87	0x3c70ec88	0.014704831
88	0xbb1fca05	-0.0024381888
89	0x3bd0e883	0.006375374
90	0x3cfbf12f	0.030754654
91	0x3bb28755	0.0054482617
92	0x3bc9cf86	0.006158772
93	0x3c63c28e	0.013901366
94	0xbb19a711	-0.0023445527
95	0x3c34479e	0.011003403
96	0xbbb229e9	-0.005437125
97	0x3ba66350	0.005077757
98	0x3c747061	0.014919371
99	0xbc8736d0	-0.016505629
100	0xbb4aebf3	-0.003096339
101	0x3c236a3b	0.009974058
102	0x3a0caf5f	0.00053667085
103	0xbc8968eb	-0.016773662
104	0x3c2a9086	0.010410434
105	0x3a8e1ccf	0.0010842326
106	0xbb2c4d3f	-0.002629116
107	0xbcc28ba0	-0.023748219
108	0xbbfc82b1	-0.0077060093
109	0x3bd0c345	0.006370934
110	0x3d1ca900	0.03824711
111	0x3c96a50a	0.018389244
112	0x3c74d136	0.014942458
113	0xbc0d4954	-0.00862344
114	0x3c47ac5c	0.01218709
115	0x3c8a82fb	0.01690816
116	0x3c3e6c12	0.011622446
117	0x3bc9e718	0.0061615817
118	0x3ca3f4a1	0.02001411
119	0x3b5f8b2d	0.0034110055
120	0x3c674c4b	0.014117311
121	0x3c804cf7	0.0156617
122	0x3d5ab872	0.053398557
123	0x3c5a975d	0.013341752
124	0x3b1e65d6	0.0024169586
125	0xbcbbab63	-0.022908872
126	0xbca9bee5	-0.020720908
127	0xbc0d1528	-0.008611001

code_layer.weight f4 [128, 10]
0	0xbe419764	-0.18905407
1	0x3d8e66b0	0.0695318
2	0x3d9c41c6	0.07629733
3	0x3d10fd8a	0.035398044
4	0xbe33717c	-0.1752376
5	0xbe482680	-0.19545937
6	0xbe47ce79	-0.19512357
7	0x3d2bcdce	0.041944318
8	0x3d21f357	0.039538708
9	0x3dc70cc2	0.0971923
10	0xbded774a	-0.11595018
11	0x3bc71974	0.0060760323
12	0xbdaa460c	-0.08314142
13	0x3deecd7d	0.116602875
14	0x3d86a587	0.065745406
15	0x3e038884	0.12845045
16	0x3e8d414f	0.2758889
17	0x3c159014	0.009128589
18	0xbe8d9de1	-0.27659515
19	0xbd345feb	-0.044036787
20	0xbe9a878c	-0.3018154
21	0x3deb4f84	0.11489776
22	0xbc1b7174	-0.009487499
23	0xbd05e776	-0.03269144
24	0xbe669994	-0.22519523
25	0xbd896ca8	-0.06710178
26	0x3ddce5ed	0.10786042
27	0xbce57572	-0.028010104
28	0xbdc799aa	-0.09746106
29	0xbc24c5f0	-0.010056958
30	0xbe66819f	-0.22510384
31	0x3c9489f4	0.018132187
32	0x3e348be6	0.17631492
33	0x3d3393ad	0.043842006
34	0x3c88bd3e	0.0166918
35	0xbc223158	-0.00989946
36	0x3dc672b4	0.09689847
37	0x3da980e8	0.0827654
38	0xbe0d8e56	-0.13823828
39	0xbd844efc	-0.064603776
40	0xbde316c1	-0.11088324
41	0x3d96e271	0.07367409
42	0xbdd9aa52	-0.10628189
43	0xbdccc394	-0.09998241
44	0x3dc61dbb	0.096736394
45	0x3e4cdb38	0.200055
46	0xbd98369e	-0.074322924
47	0xbe504890	-0.2034018
48	0xbe2a3161	-0.16620399
49	0xbde05562	-0.109537855
50	0xbdc4d7cf	-0.09611475
51	0xbe82d3a7	-0.25552103
52	0x3e359f28	0.17736495
53	0x3cf1f5dc	0.02953618
54	0x3db1f6ac	0.08689627
55	0xbe140fcb	-0.1445915
56	0xbd1f4171	-0.03888077
57	0x3d812a1b	0.06306859
58	0xbe07496b	-0.132116
59	0xbd928bf1	-0.07155598
60	0x3e0137a9	0.12618889
61	0xbd2691c1	-0.040666346
62	0x3dd32fb5	0.10311834
63	0xbdf56d7f	-0.11983775
64	0xbd58806e	-0.052856855
65	0xbde1cdc6	-0.11025576
66	0xbcc5d77e	-0.024150606
67	0x3e05a680	0.13051796
68	0xbe24d403	-0.16096501
69	0x3dab6b50	0.083700776
70	0x3e317697	0.17330395
71	0xbe27de67	-0.16393434
72	0x3d12fa7b	0.035883408
73	0xbdbb3210	-0.09140408
74	0x3cc8abbf	0.024495957
75	0x3e1ee497	0.15516888
76	0x3cbd2670	0.023089617
77	0x3c8cba86	0.017178785
78	0x3d644c62	0.055736907
79	0x3e630155	0.22168477
80	0x3d32b2dd	0.04362761
81	0x3bb40ca4	0.005494671
82	0x3d05543e	0.032551043
83	0xbd21caf1	-0.03950018
84	0xbd6ce596	-0.057836138
85	0xbe451a3b	-0.19248287
86	0x3d9c7b28	0.07640678
87	0x3debc3e5	0.11511973
88	0xbe4d2098	-0.20031965
89	0xbd299c70	-0.041408956
90	0xbda0429a	-0.07825203
91	0xbc8d9c6e	-0.017286506
92	0xbc514c79	-0.01277458
93	0xbdb19acf	-0.086721055
94	0xbe4ba371	-0.19886567
95	0xbd8604c6	-0.06543879
96	0xbd60caf9	-0.05488107
97	0xbe5ee2fe	-0.21766278
98	0x3e217874	0.15768605
99	0xbd5c1d7c	-0.053739056
100	0xbdeb7171	-0.114962466
101	0x3e258abe	0.16166207
102	0xbd58bd0b	-0.05291466
103	0xbe0409d1	-0.1289437
104	0xbc8a0471	-0.016847821
105	0x3bc0b25a	0.005880636
106	0xbdc96461	-0.09833599
107	0x3da5c9d5	0.08095137
108	0xbdb90a81	-0.090352066
109	0x3d3234f4	0.04350753
110	0xbe090ec0	-0.13384533
111	0x3dc10588	0.09424883
112	0x3d0eca66	0.03486099
113	0x3d65cd18	0.056103796
114	0x3dd3690a	0.10322769
115	0xbcb670bc	-0.022270553
116	0xbe2c12a3	-0.16803984
117	0xbbd0712c	-0.0063611474
118	0xbe81a9b8	-0.25324798
119	0xbc231781	-0.009954334
120	0x3e42d5be	0.19026849
121	0x3da6e709	0.08149535
122	0xbc5280c3	-0.012848082
123	0xbda19340	-0.07889414
124	0xbd244798	-0.04010734
125	0xbe20dc9f	-0.1570916
126	0xbe28e189	-0.16492285
127	0x3e0d12a1	0.13776638
128	0x3d8f2675	0.06989757
129	0xbea3effc	-0.3201903
130	0x3d97f5c6	0.074199244
131	0x3d57db43	0.05269934
132	0x3e21f498	0.15815961
133	0xbcd1b151	-0.025597246
134	0xbdf07833	-0.11741676
135	0xbdf4cd32	-0.119532004
136	0x3d4824c2	0.04886318
137	0xbb614767	-0.0034374835
138	0x3df8477d	0.1212301
139	0x3d899b3a	0.0671906
140	0xbd06905d	-0.03285252
141	0xbe410728	-0.18850386
142	0xbd803b04	-0.06261256
143	0xbe6d0528	-0.23146498
144	0xbe288c92	-0.16459873
145	0xbe07f781	-0.13278009
146	0xbd2b29d5	-0.04178794
147	0x3dc3aa70	0.09553993
148	0xbd65f37a	-0.0561404
149	0x3cc04955	0.023472467
150	0x3e75c76a	0.24001852
151	0xbd3cfdba	-0.04614041
152	0xbde9d99e	-0.1141846
153	0xbc615c68	-0.0137549415
154	0xbdaf44fe	-0.08558081
155	0x3ca7419f	0.020417033
156	0xbd9beb89	-0.07613284
157	0xbba80edc	-0.0051287245
158	0xbe524810	-0.20535302
159	0x3d408ef4	0.04701133
160	0xbdb1425a	-0.08655234
161	0x3c67c6a9	0.014146485
162	0xbdaed569	-0.085367985
163	0x3d882039	0.06646771
164	0xbd84e49c	-0.06488916
165	0xbdc1c264	-0.09460905
166	0x3952fb58	0.00020120793
167	0xbd8bd54e	-0.06827794
168	0x3d0c1af2	0.034205385
169	0xbde206a0	-0.1103642
170	0x3cd79db8	0.026320323
171	0x3e179937	0.1480454
172	0x3d8ae2e1	0.06781555
173	0xbdd6dd16	-0.104913875
174	0xbd7767a2	-0.060401566
175	0x3c1a75d2	0.009427505
176	0x3e0b0067	0.13574372
177	0xbded4189	-0.115847655
178	0xbda1a1d0	-0.078921914
179	0x3dfec870	0.12440574
180	0x3ddb604d	0.10711727
181	0xbdcbbd4a	-0.099482134
182	0xbd93f505	-0.07224468
183	0x3e3e8d63	0.18608622
184	0xbe800b94	-0.25008833
185	0xbc3b5878	-0.011434667
186	0x3de3481c	0.11097738
187	0x3cd3dd97	0.025862498
188	0xbd8ff179	-0.07028479
189	0xbd61009c	-0.05493222
190	0xbd41ba89	-0.047297034
191	0xbcf7d409	-0.030252473
192	0xbd822cbd	-0.063561894
193	0xbdc1d3ad	-0.09464202
194	0xbdd65244	-0.1046491
195	0x3c9b5398	0.018960759
196	0x3c9d2c78	0.019186243
197	0xbe5dd1ae	-0.21662018
198	0xbdaafb8f	-0.08348762
199	0x3e53fb5d	0.20701356
200	0x3d8737d7	0.066024475
201	0xbd197293	-0.037462782
202	0xbd0fd4b0	-0.035114944
203	0x3e83402b	0.25634894
204	0x3e10c1cc	0.14136428
205	0xbe9fff5e	-0.31249517
206	0xbd967f71	-0.07348526
207	0x3d6e0a3d	0.058115233
208	0xbb852997	-0.004063796
209	0x3d68a2be	0.056795828
210	0x3da98c4e	0.08278714
211	0x3e51a645	0.20473583
212	0xbdcde781	-0.100539215
213	0x3e0930eb	0.13397567
214	0x3dd73809	0.10508735
215	0x3eae9f2d	0.34105816
216	0xbe38fea8	-0.18065894
217	0x3ad90f0e	0.0016560273
218	0xbd781225	-0.06056418
219	0x3d7bba33	0.06145687
220	0x3dc1d628	0.09464675
221	0xbe3de888	-0.18545735
222	0xbe1bb35b	-0.15205137
223	0x3d0be468	0.034153372
224	0xbb486bfa	-0.0030581937
225	0xbe063ff9	-0.13110341
226	0x3e26b407	0.16279612
227	0xbd578429	-0.052616272
228	0x3d58cabc	0.052927718
229	0x3cc79b3d	0.024366016
230	0xbc09f901	-0.008421184
231	0xbcc26f61	-0.02373475
232	0xbcafd6e7	-0.021464778
233	0x3d54fbec	0.051998064
234	0x3d77e657	0.060522404
235	0x3e5b5a72	0.21421221
236	0xbdf97750	-0.1218096
237	0x3dc38947	0.09547668
238	0xbda5cbd3	-0.08095517
239	0xbdb5b3be	-0.08872174
240	0xbd9a42d9	-0.075322814
241	0x3e8527a1	0.26006797
242	0xbc02dbc2	-0.007986965
243	0xbcfad0d0	-0.030617148
244	0x3e2dae29	0.16960968
245	0xbe177350	-0.14790082
246	0x3db6a81d	0.08918784
247	0x3e596ebf	0.21233653
248	0x3e1227cb	0.14272992
249	0xbd72be90	-0.059263766
250	0xbdee7f7f	-0.11645412
251	0xbda3e4e4	-0.08002642
252	0xbdff352a	-0.12461312
253	0xbcd4cce0	-0.025976598
254	0xbde5dbac	-0.1122354
255	0x3c5827a2	0.013193043

code_layer.bias f4 [128]
0	0x3cb5c07f	0.022186516
1	0x3c19783d	0.009367046
2	0xbb768fcf	-0.0037622338
3	0xbcc56655	-0.024096647
4	0x3a502191	0.0007939572
5	0x3bbe4740	0.0058068335
6	0xbcb1edbc	-0.021719806
7	0x3cc8fe3d	0.024535293
8	0x3bf4ac1f	0.0074668075
9	0x3c5c6a08	0.013453014
10	0x3c889e4e	0.016677048
11	0x3c5455eb	0.012959938
12	0xbc361dfa	-0.011115545
13	0x3bb25292	0.005441972
14	0xb9879884	-0.0002586284
15	0xbc60b419	-0.013714814
16	0xbbf9ad2a	-0.0076195197
17	0x3bcaef8f	0.0061931084
18	0xbc94fbea	-0.018186528
19	0x3ca0d290	0.019631654
20	0x3b910157	0.0044252085
21	0xbd05257c	-0.03250645
22	0xbc499eb7	-0.012305907
23	0x3b1fd9f4	0.0024391385
24	0x3c5d2c4d	0.013499332
25	0xbbace161	-0.0052758907
26	0xbd1100ee	-0.035401277
27	0xbcd5312c	-0.026024424
28	0xbcb6de9b	-0.022322943
29	0x3c76cb30	0.015063092
30	0xbc8da53b	-0.017290702
31	0xbcdb2682	-0.02675176
32	0xbb412836	-0.002947343
33	0xba86080b	-0.0010225786
34	0xbd0a91d0	-0.033830464
35	0x3b17630a	0.0023099803
36	0xbbc46440	-0.005993396
37	0xbd02dc51	-0.03194839
38	0x3cbf556a	0.023356158
39	0xbc56c5c5	-0.013108675
40	0x3b87d68a	0.004145448
41	0xbb6367fe	-0.0034699435
42	0x3bae06b8	0.0053108595
43	0xbc510471	-0.012757407
44	0xbb7c262c	-0.00384749
45	0xbc1b1292	-0.009464877
46	0xbb247545	-0.0025094312
47	0xbb84f0a6	-0.004057008
48	0xbbbcc7cf	-0.0057611237
49	0x3b7257a2	0.0036978503
50	0xbc2fffd8	-0.01074215
51	0xbce28a2f	-0.027653782
52	0xbc08e612	-0.008355634
53	0xbc607c31	-0.013701485
54	0x3a66a28f	0.0008798027
55	0x3cfe7546	0.03106178
56	0x3c879ce8	0.01655431
57	0x3cf816c2	0.03028429
58	0x3bd92c65	0.0066276067
59	0x3c97ed6d	0.01854583
60	0xbbee76b2	-0.007277333
61	0xbc834cdc	-0.01602786
62	0xbbf23ab1	-0.0073922505
63	0x3bb90a40	0.005646974
64	0x3bc61718	0.0060452335
65	0xbc276c4b	-0.01021869
66	0x3c8ad70c	0.016948245
67	0xbb2fa410	-0.002680067
68	0xbc3f4641	-0.011674465
69	0x3cb3155c	0.02186077
70	0xbcc2bf31	-0.023772808
71	0xbc7524f7	-0.014962426
72	0x3b746743	0.0037292994
73	0x3b531bfb	0.0032212723
74	0xbc5f0c1c	-0.013613727
75	0xbb799b1d	-0.003808684
76	0xbc52b65c	-0.012860861
77	0xb969e9b1	-0.00022307668
78	0xbc0e8e1b	-0.008700873
79	0xbc285412	-0.01027395
80	0xbc62b7ac	-0.013837736
81	0xbbabef97	-0.005247067
82	0xba56c0db	-0.000819219
83	0x3c71792d	0.014738363
84	0xbca3b420	-0.019983351
85	0x3bff50a5	0.007791596
86	0xbb3c9fe8	-0.0028781835
87	0x3c70ec88	0.014704831
88	0xbb1fca05	-0.0024381888
89	0x3bd0e883	0.006375374
90	0x3cfbf12f	0.030754654
91	0x3bb28755	0.0054482617
92	0x3bc9cf86	0.006158772
93	0x3c63c28e	0.013901366
94	0xbb19a711	-0.0023445527
95	0x3c34479e	0.011003403
96	0xbbb229e9	-0.005437125
97	0x3ba66350	0.005077757
98	0x3c747061	0.014919371
99	0xbc8736d0	-0.016505629
100	0xbb4aebf3	-0.003096339
101	0x3c236a3b	0.009974058
102	0x3a0caf5f	0.00053667085
103	0xbc8968eb	-0.016773662
104	0x3c2a9086	0.010410434
105	0x3a8e1ccf	0.0010842326
106	0xbb2c4d3f	-0.002629116
107	0xbcc28ba0	-0.023748219
108	0xbbfc82b1	-0.0077060093
109	0x3bd0c345	0.006370934
110	0x3d1ca900	0.03824711
111	0x3c96a50a	0.018389244
112	0x3c74d136	0.014942458
113	0xbc0d4954	-0.00862344
114	0x3c47ac5c	0.01218709
115	0x3c8a82fb	0.01690816
116	0x3c3e6c12	0.011622446
117	0x3bc9e718	0.0061615817
118	0x3ca3f4a1	0.02001411
119	0x3b5f8b2d	0.0034110055
120	0x3c674c4b	0.014117311
121	0x3c804cf7	0.0156617
122	0x3d5ab872	0.053398557
123	0x3c5a975d	0.013341752
124	0x3b1e65d6	0.0024169586
125	0xbcbbab63	-0.022908872
126	0xbca9bee5	-0.020720908
127	0xbc0d1528	-0.008611001

binary_layer.weight f4 [10, 128]
0	0xb9d886ac	-0.0004129907
1	0xbb0a6731	-0.0021118636
2	0xbd2024df	-0.039097663
3	0xbe085c06	-0.13316354
4	0xbcfad524	-0.030619211
5	0x3c0326fd	0.008004901
6	0xbe5ac2e2	-0.21363404
7	0xbd001677	-0.031271424
8	0x3de343d0	0.110969186
9	0x3dd4f97c	0.10399148
10	0x3cc361ac	0.023850285
11	0x3d8f191a	0.069872096
12	0xbe315b43	-0.1731997
13	0x3e2db920	0.16965151
14	0xbe4d2d23	-0.2003675
15	0x3daff2a5	0.08591203
16	0xbdcb118a	-0.09915455
17	0xbd2e8a8a	-0.04261259
18	0xbd9221bf	-0.07135343
19	0xbcf23a71	-0.029568883
20	0xbd7b8d4c	-0.061414048
21	0xbd6d5dbd	-0.057950724
22	0x3d405a14	0.046960905
23	0xbdcbc13e	-0.099489674
24	0x3db13c9c	0.086541384
25	0x3dcf0f77	0.101103716
26	0xbda8d313	-0.08243384
27	0xbd984c88	-0.07436472
28	0x3d6db196	0.058030687
29	0x3db59784	0.0886679
30	0xbd0c85db	-0.034307342
31	0xbd078c3f	-0.033092733
32	0x3d5bc393	0.05365331
33	0xbb362d0c	-0.0027797846
34	0x3ce0fe91	0.027465137
35	0x3c171695	0.009221693
36	0xbd225a1f	-0.039636727
37	0xbe5b5fdb	-0.21423285
38	0x3e0ef072	0.1395891
39	0x3d4a9e9d	0.04946767
40	0xbd84f673	-0.06492319
41	0xbdd9b9ec	-0.10631165
42	0x3d328583	0.043584358
43	0x3b9e4e95	0.004831145
44	0x3d401af7	0.046900716
45	0xbdb02f74	-0.08602801
46	0xbd98ab1c	-0.074545115
47	0x3de88e1c	0.1135523
48	0xbe04ac1c	-0.1295628
49	0x3d74ce70	0.059767187
50	0xbe2913f3	-0.16511516
51	0xbd2e6139	-0.042573188
52	0xbe126523	-0.14296393
53	0xbd01cfcc	-0.03169231
54	0xbddd333c	-0.10800788
55	0x3d38485f	0.044990893
56	0x3d813912	0.063097134
57	0x3e0fde9a	0.1404976
58	0xbd5d2a8e	-0.05399566
59	0x3e8b8668	0.2725098
60	0x3d8a513a	0.06753774
61	0xbe3402e9	-0.17579235
62	0x3d26a7ff	0.040687557
63	0x3c455646	0.012044495
64	0xbe1d1075	-0.15338309
65	0x3ca4e20d	0.02012732
66	0x3df1cd5d	0.11806748
67	0xbb85af2e	-0.004079721
68	0xbd78a2da	-0.060702182
69	0x3e283456	0.16426215
70	0x3e352e33	0.17693405
71	0xbe01c222	-0.12671712
72	0xbd9b9c58	-0.075981796
73	0x3e27e33c	0.16395277
74	0xbdaa6867	-0.083206944
75	0xbd1b1eac	-0.037871048
76	0x3d1af83a	0.037834384
77	0x3d913931	0.070909865
78	0xbe84463c	-0.25834835
79	0x3e10a56f	0.14125608
80	0xbce1f0a1	-0.027580561
81	0xbe03f5bb	-0.12886707
82	0x3e6bedf0	0.23039985
83	0x3d18dabb	0.037317973
84	0x3e11237c	0.14173692
85	0x3d45bcd1	0.048275772
86	0xbdecd91f	-0.1156485
87	0xbcdd9a3c	-0.027051084
88	0x3dfc3f6d	0.12316785
89	0x3dfccf4e	0.12344228
90	0xbc353b67	-0.011061526
91	0x3db0289d	0.08601496
92	0x3d2cddfd	0.042203892
93	0x3dc1ddf7	0.094661646
94	0x3e23a9d9	0.1598276
95	0x3c165f47	0.009177989
96	0x3cfba270	0.030717105
97	0x3d51f5a9	0.05125967
98	0x3c98da76	0.018658858
99	0xbcf70450	-0.030153424
100	0xbc972d6d	-0.018454278
101	0x3dcaf963	0.09910848
102	0xbe0c0d84	-0.13677031
103	0xbd7e940a	-0.0621529
104	0x3d05099f	0.03247988
105	0x3e1c0103	0.15234761
106	0xbe4cd3ed	-0.20002718
107	0x3b0d18c8	0.0021529663
108	0x39863d15	0.0002560398
109	0xbae771f7	-0.0017657866
110	0x3d19ca98	0.037546724
111	0x3dc77763	0.09739568
112	0xbc8b1935	-0.016979793
113	0x3ccef99c	0.025265507
114	0xbe5901e0	-0.21192122
115	0xbdd984b2	-0.10621013
116	0xbe1be53d	-0.15224166
117	0x3d0bb250	0.0341056
118	0x3d0609ab	0.032724064
119	0x3d40fa45	0.047113676
120	0x3d4719a1	0.048608426
121	0x3e5d235c	0.2159552
122	0x3dddeb6e	0.1083592
123	0xbd6b78b4	-0.05748816
124	0x3e8a6c2b	0.2703565
125	0xbd4e480b	-0.050361674
126	0xbe46ab1d	-0.19401212
127	0x3dfdf9c3	0.12401154
128	0x3e26fb62	0.16306832
129	0x3e6b2082	0.2296162
130	0xbd481619	-0.0488492
131	0xbcedb02a	-0.029014666
132	0xbd5c3672	-0.05376286
133	0x3bbf7aeb	0.0058435104
134	0xbe4546f5	-0.19265349
135	0x3e9df61b	0.30851826
136	0xbe08ee78	-0.13372219
137	0x3d86972e	0.06571804
138	0x3d63e0eb	0.05563442
139	0xbccf288b	-0.025287887
140	0xbce8208c	-0.028335832
141	0x3cdb7a43	0.026791697
142	0xbe6c030e	-0.2304804
143	0xbe72e502	-0.23720172
144	0xbc8700aa	-0.016479809
145	0x3e642087	0.22278033
146	0xbe443105	-0.19159324
147	0xbc8e584a	-0.017376084
148	0xbd90336f	-0.0704106
149	0xbd610f2f	-0.05494612
150	0xbe1764dd	-0.1478457
151	0xbb935883	-0.0044966354
152	0x3d84be77	0.06481641
153	0x3cbe4279	0.023225056
154	0xbe6ecdaf	-0.2332065
155	0xbe02f45f	-0.12788533
156	0xbd8126b8	-0.06306213
157	0x3d3fe7c9	0.046851907
158	0xbe0aa30b	-0.13538758
159	0xbe21d5a0	-0.15804148
160	0x3d479475	0.048725564
161	0xbc8399ee	-0.01606461
162	0x3da08ae5	0.07838992
163	0xbca703e3	-0.020387596
164	0xbdd93cc1	-0.10607291
165	0xbebab7a4	-0.36468232
166	0xbe10ceb0	-0.14141345
167	0xbdd705ae	-0.1049913
168	0xbd4e792e	-0.050408535
169	0xbca86530	-0.020556062
170	0x3e5126a9	0.20424904
171	0xbd041f8f	-0.03225666
172	0x3e691eca	0.22765651
173	0xbd986ef9	-0.07443041
174	0xbe03185e	-0.12802264
175	0x3dbb5171	0.09146393
176	0xbde74fd4	-0.11294523
177	0x3ddc49a3	0.107562326
178	0x3d417713	0.0472327
179	0xbde6ae6b	-0.11263736
180	0xbcb8c4ae	-0.022554722
181	0xbe216f01	-0.15765001
182	0x3e17b202	0.14813998
183	0xbbcee47a	-0.0063138576
184	0x3df2efa6	0.118621156
185	0x3dcf37e0	0.10118079
186	0x3da4a3cd	0.08039055
187	0xbc92938e	-0.017892625
188	0xbcdeef90	-0.027213842
189	0x3e7101d4	0.23535854
190	0xbe1cfd0a	-0.15330902
191	0xbdf754eb	-0.12076744
192	0x3db14f06	0.08657651
193	0xbd353cd2	-0.044247456
194	0xbe00aebe	-0.12566659
195	0xbe4425ad	-0.19154997
196	0x3d574ba0	0.052562356
197	0xbca45dda	-0.020064283
198	0xbdecdb3b	-0.115652524
199	0x3cc242d0	0.0237135
200	0xbd0a3330	-0.033740222
201	0x3d89625d	0.067082144
202	0x3d9d980b	0.076950155
203	0x3c941ea4	0.018081017
204	0xbbaa8aec	-0.005204549
205	0xbd8737a3	-0.06602409
206	0xbe62c74b	-0.22146337
207	0x3d86b56e	0.06577574
208	0xbcac6e5f	-0.021048723
209	0x3e24ef11	0.16106822
210	0xbda11a31	-0.07866324
211	0x3c7fc4e0	0.0156109035
212	0x3c939790	0.018016607
213	0x3d42d20d	0.0475636
214	0x3e31f9d8	0.17380464
215	0x3d73c8a5	0.05951752
216	0xbcdf6e05	-0.027274141
217	0xbd952ca7	-0.072839074
218	0x3e2e110f	0.16998695
219	0x3e220c78	0.15825069
220	0xbd2d18f4	-0.042260125
221	0x3e06143e	0.1309366
222	0x3df17933	0.11790695
223	0xbc175c8f	-0.009238376
224	0xbe49bfa8	-0.19702017
225	0x3e1c28e1	0.15249969
226	0xbd11ca9a	-0.035593607
227	0xbd339363	-0.04384173
228	0xbe554d29	-0.20830216
229	0x3cb9afb3	0.022666788
230	0x3d86e6e8	0.065870106
231	0x3afd2fe9	0.0019316647
232	0x3da263a7	0.079291634
233	0xbcde5676	-0.027140837
234	0x3e205f04	0.15661246
235	0xbdab07aa	-0.08351071
236	0x3c8b4b27	0.017003609
237	0xbd2dfff3	-0.04248042
238	0x3d3eaa04	0.04654886
239	0x3e76238a	0.24036995
240	0x3dd8360f	0.10557186
241	0xbd02a7f0	-0.03189844
242	0xbd373b3f	-0.044734236
243	0xbba13898	-0.0049200766
244	0xbe54d54e	-0.20784494
245	0x3e104920	0.14090395
246	0xbd515e98	-0.051115602
247	0x3cc653ce	0.024209883
248	0x3cc89584	0.024485357
249	0x3bccae2e	0.00624635
250	0x3e0ca6f2	0.1373556
251	0xbcbdc47f	-0.023164986
252	0xbc77bd20	-0.0151207745
253	0xbdbdfe90	-0.092770696
254	0xbe3bf323	-0.18354468
255	0xbde55214	-0.11197296

binary_layer.bias f4 [10]
0	0x3cd359d8	0.025799677
1	0x3cc04455	0.023470083
2	0x3c497b25	0.012297426
3	0xbb670c86	-0.0035255267
4	0x3cb5879d	0.022159392
5	0x3c2d67ca	0.010583827
6	0x3cdc3568	0.026880935
7	0xbbf85617	-0.007578622
8	0x3c0a6ff8	0.008449547
9	0xbb3ba0d0	-0.0028629787

rnn.weight_ih f4 [384, 10]
0	0xbcd80195	-0.026367942
1	0x3c849af0	0.016187161
2	0xbd6bba34	-0.057550624
3	0x3cd85679	0.02640842
4	0x3db1b3d9	0.08676881
5	0x3dcab5eb	0.09897979
6	0x3dd561b3	0.10419025
7	0x3cef4efd	0.02921247
8	0x3d96dd97	0.07366484
9	0xbc662cb9	-0.014048749
10	0x3dbf3752	0.093367234
11	0xbd6b2e4b	-0.057417195
12	0xbcc3ffa9	-0.02392562
13	0x3c006e31	0.007838772
14	0x3dc8bcae	0.09801613
15	0x3e00ffc6	0.1259757
16	0x3d3113d9	0.04323182
17	0x3dba5296	0.09097783
18	0xbda2c82f	-0.07948338
19	0x3e0425dc	0.12905067
20	0xbdb78f8e	-0.08962928
21	0x3e022379	0.12708844
22	0x3e4b89d0	0.1987679
23	0x3d128f51	0.03578121
24	0x3e08a928	0.13345778
25	0x3d92ad5a	0.071619704
26	0xbd9f3e29	-0.07775528
27	0x3ce3ff50	0.027831703
28	0xbdb238a0	-0.087022066
29	0x3d28dbf5	0.041225392
30	0xbd0c9310	-0.034319937
31	0x3d1db63e	0.038503878
32	0x3d239dbc	0.03994535
33	0x3e1586d4	0.14602214
34	0xbbb8e2de	-0.005642279
35	0x3d15d8f1	0.036583845
36	0x3d680308	0.056643516
37	0x3d76035a	0.06006179
38	0x3dca272c	0.09870753
39	0xbdbf0bcb	-0.09328421
40	0x3da429db	0.08015796
41	0x3d573a7a	0.052546002
42	0x3d7f9d47	0.06240585
43	0xbd7bdc53	-0.061489414
44	0x3ba5aec4	0.005056234
45	0xbcf84f59	-0.030311273
46	0x3d9cd150	0.07657111
47	0x3cc95f1f	0.02458149
48	0xbd727f90	-0.059203684
49	0x3d977563	0.073954366
50	0xbda6b678	-0.08140272
51	0x3d1548d4	0.036446407
52	0x3d8aae93	0.06771579
53	0xbd0d36a1	-0.034475926
54	0xbdea9d43	-0.114557765
55	0xbd1040f8	-0.03521821
56	0x3ca484b4	0.020082809
57	0x3b908d08	0.0044113435
58	0xbd651ac1	-0.055933718
59	0xbd82e040	-0.063904285
60	0xbd8e417c	-0.06946084
61	0x3e0170bd	0.12640662
62	0x3dac0d2e	0.08400951
63	0xbdc5b80d	-0.096542455
64	0x3c9e5b6c	0.019330703
65	0x3dccea66	0.100056455
66	0xbc8f5fe4	-0.017501779
67	0xbd01d153	-0.031693768
68	0xbc396b63	-0.011317107
69	0xbd8a8705	-0.06764034
70	0x3e47cab4	0.19510919
71	0x3dc899b7	0.09794944
72	0xbb77a15c	-0.0037785387
73	0x3d8c7cec	0.068597645
74	0x3d3da760	0.0463022
75	0xbdcce9ad	-0.100055076
76	0xbda1365d	-0.07871697
77	0xbd8d1d76	-0.06890385
78	0xbce591d4	-0.028023638
79	0x3d8965be	0.06708859
80	0x3db6e2e4	0.08929995
81	0x3e3e016a	0.18555227
82	0xbdd0bd26	-0.10192327
83	0xbb88fa93	-0.0041802614
84	0x3d295d09	0.04134849
85	0xbdb49577	-0.08817571
86	0xbcbaf3e1	-0.022821369
87	0xbd600a84	-0.05469753
88	0x3d643ad7	0.055720177
89	0x3e0002df	0.12501095
90	0x3e354f53	0.17706041
91	0x3e602549	0.21889223
92	0xbd2a52c2	-0.04158283
93	0xbdb0a7be	-0.08625744
94	0x3d9b10b5	0.07571546
95	0xbcac1a81	-0.021008732
96	0xbd8645b5	-0.06556264
97	0x3cc49c7d	0.0240004
98	0x3dc9da10	0.09856045
99	0xbdd2db62	-0.1029575
100	0x3add4a7f	0.0016883163
101	0xbde02dd5	-0.10946242
102	0x3d8ce02a	0.068786934
103	0x3cef091d	0.02917915
104	0x3dc30fdd	0.0952451
105	0xbd8b8ef9	-0.06814379
106	0x3c80fd1d	0.015745694
107	0xbd810ef0	-0.06301677
108	0x3c885389	0.016641395
109	0x3da666cd	0.081250764
110	0x3d67de6a	0.056608595
111	0x3d84a279	0.06476302
112	0x3df7b6f3	0.12095442
113	0xbc259e26	-0.010108506
114	0xbd9397b7	-0.07206672
115	0x3dcdbb0f	0.10045444
116	0x3d8212da	0.06351252
117	0x3d165352	0.036700554
118	0x3e220d70	0.15825438
119	0x3d7e0ff3	0.06202693
120	0x3c9f913a	0.01947843
121	0x3c84910e	0.016182449
122	0xbdff31ad	-0.12460647
123	0xbc670171	-0.014099465
124	0x3d194291	0.037417
125	0x3de811d2	0.11331524
126	0x3c76deed	0.015067798
127	0x3d8a3c43	0.06749775
128	0xbd052473	-0.032505464
129	0x3c7681ed	0.015045625
130	0xbe052f27	-0.13006268
131	0x3d0b1289	0.033953223
132	0x3c1205f1	0.008912549
133	0x3e325f52	0.17419174
134	0x366e7ee0	3.5538615e-06
135	0xbdaeafe4	-0.08529642
136	0x3d2b9813	0.041893076
137	0x3cc1b8aa	0.023647625
138	0xbcd6d98b	-0.02622678
139	0xbd013ca5	-0.031551976
140	0xbd1f729a	-0.038927652
141	0x3d668184	0.05627586
142	0xbd742d3a	-0.059613444
143	0x3deb3704	0.11485103
144	0x3d9251fc	0.071445435
145	0xbe849805	-0.25897232
146	0xbd28be26	-0.041196965
147	0x3b8da8de	0.004323109
148	0x3bd5d661	0.0065258
149	0x3e334484	0.17506605
150	0xbd81982b	-0.06327852
151	0xbdb91b35	-0.090383925
152	0xbce6f9a5	-0.028195212
153	0xbdab2dd2	-0.08358349
154	0x3dc48f62	0.095976606
155	0x3d97739e	0.07395099
156	0x3e11cb62	0.1423774
157	0x35b666c0	1.3589961e-06
158	0x3da41357	0.08011501
159	0xbd565adc	-0.052332744
160	0xbda01fca	-0.07818563
161	0x3d90319f	0.070407145
162	0x3da81a53	0.08208146
163	0x3c9c5d38	0.019087419
164	0xbd6986cc	-0.057013318
165	0x3d05c736	0.032660685
166	0xbd810167	-0.062990956
167	0x3a0559e8	0.00050869444
168	0xbd8537c3	-0.06504776
169	0x3d84ae9e	0.06478618
170	0xbbb14084	-0.005409302
171	0xbd3089d2	-0.043100186
172	0x3d78299c	0.060586557
173	0x3dfbfd8e	0.12304221
174	0xbcb7aef9	-0.0224223
175	0x3daec6df	0.085340254
176	0xbb3728ab	-0.0027947824
177	0x3dac16f4	0.084028155
178	0x3ddce921	0.10786653
179	0x3d7c550a	0.061604537
180	0xbd333a61	-0.043756846
181	0xbd7a1ca9	-0.06106249
182	0xbd416244	-0.047212854
183	0x3d817c2b	0.06322511
184	0x3dc08e0b	0.094020925
185	0x3dbdf620	0.0927546
186	0xbc4cfe0e	-0.012511743
187	0x3ce791ae	0.028267708
188	0x3dc92278	0.098210275
189	0xbe08b375	-0.13349707
190	0x3d589b63	0.052882563
191	0x3df11d2c	0.11773142
192	0x3dace993	0.08442988
193	0xbddb73b4	-0.10715428
194	0x3cef1f9d	0.02918988
195	0x3dca368a	0.09873684
196	0xbdd717db	-0.10502597
197	0x3cfe08ce	0.031010058
198	0x3c2ba878	0.010477178
199	0x3d5f7a93	0.054560255
200	0x3cea0cb3	0.028570509
201	0x3cc1e496	0.023668569
202	0x3c8f30cd	0.017479325
203	0xbd33d162	-0.043900855
204	0x3dd43e3e	0.10363434
205	0x3e17032f	0.14747308
206	0xbd4a5a78	-0.049402684
207	0x3da2ddde	0.07952474
208	0x3d17a1fa	0.037019707
209	0x3d18ca17	0.037302103
210	0x3b9e6be1	0.0048346375
211	0xbe007fca	-0.12548748
212	0xbbc60ec4	-0.0060442407
213	0xbd385c12	-0.04500968
214	0xbe0f0f6a	-0.13970724
215	0xbcae5422	-0.021280352
216	0x3ddbefc3	0.1073909
217	0xbb8e51a0	-0.0043432266
218	0xbcbff398	-0.023431584
219	0x3c6307c4	0.013856832
220	0x3d0e682a	0.034767307
221	0xbcdd775d	-0.027034456
222	0x3dfd4f58	0.12368649
223	0x3d91bce5	0.07116107
224	0x3d7e6033	0.06210346
225	0x3cbceaf9	0.023061262
226	0x3e035c7c	0.12828249
227	0xbda0250d	-0.07819567
228	0x3e1c179e	0.15243384
229	0xbbe55634	-0.0069988016
230	0x3d8da752	0.069166794
231	0xbc8abd91	-0.016936095
232	0x3e123076	0.14276299
233	0x3cad7b35	0.021176914
234	0xbd40e7b4	-0.04709597
235	0xbccd845a	-0.025087524
236	0x3dd8441e	0.10559867
237	0x3d488f34	0.048964694
238	0x3de15c26	0.11003904
239	0x3d831bf6	0.064018175
240	0x3e2a33c3	0.16621308
241	0x3d923ef4	0.071409136
242	0x3d3735f7	0.0447292
243	0x3e0bfefc	0.13671488
244	0x3ca458c8	0.020061865
245	0x3de7025e	0.112797484
246	0x3de94b5c	0.11391327
247	0xbc833d9c	-0.016020589
248	0x3dc33c84	0.09533027
249	0x3dda74a9	0.106667824
250	0xbe4585e7	-0.19289361
251	0x3d891186	0.066927955
252	0xbc3185ee	-0.010835154
253	0x3e33e855	0.17569096
254	0x3e06148b	0.13093774
255	0x3c66deb1	0.01409118

rnn.weight_hh f4 [384, 128]
0	0xbc00b1d1	-0.007854895
1	0xbce2d1e6	-0.027687978
2	0x3e1bebed	0.15226717
3	0x3dd5f85f	0.10447764
4	0xbd146ddb	-0.03623758
5	0xbdf061aa	-0.11737378
6	0xbd2c2521	-0.042027596
7	0xbdda0407	-0.106452994
8	0xbcb19b1b	-0.021680405
9	0xbd6e9eb8	-0.058256835
10	0xbd4690c7	-0.048477914
11	0xbd8412f1	-0.06448925
12	0xbde3b510	-0.11118519
13	0x3e5f06e1	0.21779968
14	0xbd8377fc	-0.064193696
15	0x3aab4f3e	0.0013069881
16	0xbd85adfe	-0.06527327
17	0xbc52011a	-0.012817645
18	0x3dac08b0	0.084000945
19	0xbdc9c54b	-0.09852084
20	0x3cb40529	0.021975117
21	0xbd7914c5	-0.060810823
22	0xbd2c2601	-0.04202843
23	0x3c9fc9ce	0.019505408
24	0xbdc8f12f	-0.09811627
25	0xbd7ba7df	-0.06143939
26	0xbcf2d259	-0.029641317
27	0x3d24c9d2	0.040231533
28	0xbd97caae	-0.07411705
29	0x3d142e41	0.036176924
30	0x3c93e67d	0.018054241
31	0xbd17b5dc	-0.03703867
32	0x3d01f538	0.031728
33	0x3df057c1	0.11735488
34	0x3dcd9b08	0.100393355
35	0x3e0672a8	0.13129675
36	0xbd845425	-0.06461362
37	0xbe14c452	-0.14528015
38	0xbccabc2b	-0.024747929
39	0x3d7b7cb3	0.06139822
40	0x3e1a9498	0.15095747
41	0x3cbeb38c	0.023278974
42	0x3c3da47e	0.0115748625
43	0x3de338e0	0.110948324
44	0xbdccaa0e	-0.09993373
45	0xb93b91b6	-0.00017887991
46	0xbb93dd5a	-0.004512471
47	0xbcf872e5	-0.030328223
48	0xbaec74e9	-0.0018040213
49	0xbd893cfa	-0.067010835
50	0xbc59ba1d	-0.013289002
51	0x3d0e91c7	0.034806993
52	0x3d596aad	0.05308025
53	0xbbfbb86b	-0.0076818964
54	0xba908f2b	-0.0011028996
55	0x3e0bd38d	0.13654919
56	0xbcaa2270	-0.020768374
57	0x3c931683	0.01795507
58	0x3dc1d4b0	0.09464395
59	0xbd44884b	-0.04798154
60	0xbd3c2fdc	-0.04594408
61	0xbd5abe72	-0.05340428
62	0xbe00b18d	-0.1256773
63	0x3d2304ef	0.039799627
64	0xbda7270a	-0.08161743
65	0xbd7a5d74	-0.06112428
66	0xbbda3718	-0.0066593997
67	0x3e2b9003	0.16754155
68	0xbd423cec	-0.04742138
69	0xbac12afa	-0.001473754
70	0xbd91f90b	-0.07127579
71	0xbd254b63	-0.040355098
72	0xbd0724f7	-0.032994237
73	0x3c8d5d2d	0.017256344
74	0xbc4c9cd0	-0.012488559
75	0xbc80be25	-0.015715668
76	0xbdaa7c76	-0.0832452
77	0xbdfa83ab	-0.12232145
78	0xbe517dfe	-0.20458218
79	0x3ae953ba	0.0017801442
80	0xbc852682	-0.016253714
81	0xbd6c47eb	-0.057685774
82	0x3cc1323e	0.023583528
83	0xbd926680	-0.071484566
84	0xbc4843b4	-0.012223173
85	0x3d4b0b1c	0.04957114
86	0x3cbe662d	0.02324208
87	0x3d08fe09	0.03344539
88	0xbd831da0	-0.06402135
89	0xbc86e562	-0.0164668
90	0xbbf2e0f0	-0.0074120685
91	0x3d340351	0.043948475
92	0x3ae83506	0.0017715998
93	0xbdaa8b85	-0.083273925
94	0x3da782a1	0.08179212
95	0x3db947c3	0.090468906
96	0xbd2e61db	-0.04257379
97	0x3d891fd9	0.066955276
98	0x3c956dff	0.018240927
99	0x3da57b76	0.08080189
100	0xbd9a143e	-0.07523392
101	0xbe0d38b3	-0.1379116
102	0xbd523cc6	-0.05132749
103	0xbce993fb	-0.028512945
104	0x3e1b2b9d	0.15153356
105	0xbd82880e	-0.063736066
106	0x3db15c9c	0.08660242
107	0x3c92b4b7	0.017908437
108	0x3d204f8b	0.039138358
109	0x3dbabb52	0.0911776
110	0xbe0d893f	-0.13821886
111	0x3d864e91	0.06557954
112	0x3ca1e6ae	0.019763317
113	0xbbba876a	-0.005692412
114	0x3decc9f3	0.11561956
115	0xbbb12740	-0.0054062903
116	0x3d6b6217	0.057466593
117	0xbe02979e	-0.1275315
118	0xbc39632a	-0.011315146
119	0xbd2a161d	-0.041524995
120	0xbd82a3f7	-0.0637893
121	0x3cac70a3	0.021049803
122	0xbcd5f02e	-0.026115503
123	0x3d91ef10	0.07125676
124	0x3cad8d15	0.021185437
125	0x3d9144e1	0.07093216
126	0xbdaa4901	-0.08314706
127	0x3d25846d	0.040409494
128	0x3dc2b80f	0.09507763
129	0xbae97f97	-0.0017814514
130	0x3c267f78	0.010162227
131	0x3d982cc5	0.07430414
132	0xbe02e67b	-0.12783234
133	0xbdfcf608	-0.12351614
134	0xbc093a84	-0.008375768
135	0xbe01963d	-0.12654968
136	0xbd2dd3e9	-0.04243842
137	0xbdfd59c5	-0.12370638
138	0xbd1968f6	-0.037453614
139	0xbd65d967	-0.056115534
140	0xbac7a0e3	-0.0015230443
141	0x3e05e2ab	0.13074748
142	0x3cb9c5f4	0.0226774
143	0xbe064250	-0.13111234
144	0xbcbc70c8	-0.023002997
145	0xbe2116e7	-0.15731393
146	0x3d9a5f21	0.07537676
147	0xbb517360	-0.0031959638
148	0xbd812251	-0.063053735
149	0xbe12b61b	-0.1432728
150	0x3d7e73cd	0.062122155
151	0xbb9613de	-0.004580005
152	0x3d0113a9	0.03151289
153	0xbd0ef951	-0.034905735
154	0xbda5590b	-0.08073624
155	0xbd3b4087	-0.045715835
156	0xbd8babed	-0.068199016
157	0x3d4c8c94	0.049938753
158	0xbd30356a	-0.04301969
159	0xbe265b59	-0.16245784
160	0x3daa9cca	0.083306864
161	0x3c2e6bfe	0.0106458645
162	0xbda9963b	-0.08280607
163	0xbdc1ea61	-0.09468532
164	0x3d547ce4	0.051876917
165	0xbd13d0ec	-0.036087915
166	0x3d2a9cbe	0.041653387
167	0x3d97450f	0.07386219
168	0x3cf4e02c	0.02989205
169	0xbdccfe02	-0.10009386
170	0xbbfe9848	-0.007769618
171	0xbe0b2e56	-0.13591895
172	0xbd806458	-0.06269139
173	0x3d86329d	0.065526225
174	0xbbd3f090	-0.0064678863
175	0x3d8bb3a5	0.06821374
176	0xbc91ebe1	-0.017812671
177	0x3d9f5d08	0.07781416
178	0xbcfc01a1	-0.030762495
179	0x3dd2353a	0.102640584
180	0x3d6c54a2	0.0576979
181	0x3c1ad24d	0.009449554
182	0x3d90410b	0.07043656
183	0x3e318467	0.17335664
184	0xbdb6e7ae	-0.08930908
185	0x3d93511e	0.07193206
186	0xba02f414	-0.0004995477
187	0x3d8197de	0.063277945
188	0x3c174330	0.009232327
189	0xbd63f206	-0.055650733
190	0xbe30e6e9	-0.17275585
191	0x3e0383eb	0.12843291
192	0x3d13e344	0.03610541
193	0xbc8cda3a	-0.017193902
194	0x3d28bbca	0.041194715
195	0x3c05ed7a	0.008174295
196	0x3c225e51	0.009910182
197	0x3d29b5cf	0.04143315
198	0x3c94e118	0.01817374
199	0x3bc2ae5e	0.0059411963
200	0xbd8f20c3	-0.06988671
201	0x3d354205	0.044252414
202	0x3d9c3843	0.076279186
203	0x3c8c322e	0.017113771
204	0x3dfcffeb	0.123535
205	0xbe20e6bd	-0.1571302
206	0xbd06cc28	-0.032909542
207	0x3d37d3c4	0.04487969
208	0x3da62133	0.08111801
209	0xbdb1c7f2	-0.08680715
210	0xbd09fbda	-0.03368745
211	0x3d6d1d63	0.057889353
212	0xbc7532cd	-0.014965725
213	0x3cf5a6a9	0.029986696
214	0x3cb7850b	0.022402307
215	0xbaa6fb75	-0.0012739735
216	0x3dc4a44c	0.0960165
217	0x3d42adfb	0.047529202
218	0xbe001a08	-0.1250993
219	0x3e1da506	0.15394983
220	0xbe16ff07	-0.14745723
221	0xbcce3c5a	-0.025175262
222	0xbd6f8c69	-0.058483515
223	0x3ce77705	0.028254995
224	0xbc8a54e7	-0.016886188
225	0xbddeee51	-0.10885299
226	0x3ddb9b98	0.107230365
227	0x3dc3568e	0.09537993
228	0xbc11320f	-0.008862033
229	0xbcd6c9f9	-0.026219355
230	0xbde2773c	-0.110578984
231	0x3e124b56	0.14286551
232	0xbdfe6da5	-0.12423257
233	0xbd37d2d8	-0.04487881
234	0xbd528434	-0.05139561
235	0xbd7ed854	-0.062218025
236	0x3dcae92d	0.09907756
237	0x3c139231	0.009007023
238	0x3d927761	0.07151676
239	0x3cd3810b	0.025818368
240	0x3d86776c	0.06565747
241	0x3c5d2d58	0.01349958
242	0xbc676a1e	-0.014124421
243	0x3c4b81b0	0.012421057
244	0xbdd3e38f	-0.10346138
245	0xbd0d39a8	-0.034478813
246	0xbe15ad17	-0.1461681
247	0xbd367cc1	-0.04455257
248	0xbdca0e24	-0.09865978
249	0xbdf4c0d1	-0.11950839
250	0x3dab5437	0.08365672
251	0x3e0dc443	0.13844399
252	0x3c203492	0.009778159
253	0x3dd7c5d2	0.10535778
254	0x3db2d073	0.08731165
255	0x3c517e9d	0.012786535

rnn.bias_ih f4 [384]
0	0x3cd122cd	0.02552929
1	0x3d8f097e	0.06984232
2	0x3d3e4372	0.04645104
3	0x3cbd3477	0.023096306
4	0x3cf04294	0.029328622
5	0x3c754532	0.014970111
6	0x3d14761e	0.036245458
7	0x3cee13f4	0.029062249
8	0x3c93e934	0.018055536
9	0x3cd34ecb	0.025794407
10	0x3cc30681	0.023806812
11	0x3d5e39b3	0.054254245
12	0x3c87e447	0.016588343
13	0x3cbed7be	0.023296233
14	0x3d5f5ae5	0.054530043
15	0x3d875307	0.06607633
16	0x3d0467b5	0.032325465
17	0x3cfdb5bc	0.030970447
18	0x3ca8a132	0.020584676
19	0x3d002372	0.031283803
20	0x3d84dd4e	0.06487523
21	0x3cd72cfd	0.02626657
22	0x3bad0f04	0.005281331
23	0xbc118a3e	-0.008883057
24	0x3dc2bd15	0.09508721
25	0x3cd776fc	0.026301853
26	0xbc5b06ab	-0.013368289
27	0x3d1e9528	0.038716465
28	0x3d2ae8ff	0.04172611
29	0x3c43faa9	0.0119616175
30	0x3d0a234d	0.03372507
31	0x3c8f8d83	0.017523533
32	0x3c947485	0.018121967
33	0xbc984245	-0.018586287
34	0x3d2ce3a5	0.042209286
35	0x3d10e301	0.035372738
36	0x3c4789e8	0.0121788755
37	0x3c120393	0.008911985
38	0xbb031498	-0.0020001289
39	0x3c7b67f8	0.015344612
40	0x3d079644	0.03310229
41	0x3d420dcb	0.047376435
42	0x3ce6cd7c	0.028174154
43	0x3d4084f1	0.047001783
44	0x3d81173c	0.0630326
45	0x3d276fbd	0.040878046
46	0x3cb4aeef	0.022056071
47	0x3d4ff0b0	0.050766647
48	0x3d1cb52b	0.038258713
49	0x3dce2619	0.1006586
50	0x3d3fc697	0.04682025
51	0x3cfeb2f4	0.03109119
52	0x3ccbd105	0.024879942
53	0x3c1039f5	0.0088028805
54	0x3c8de313	0.017320191
55	0x3d26a727	0.040686753
56	0x3da4536b	0.08023723
57	0x3c3fbe33	0.011703062
58	0x3d1aa7dd	0.037757743
59	0x3d5b7382	0.053576954
60	0x3ca8051b	0.020510247
61	0x3ae04f9a	0.0017113567
62	0x3c86a760	0.016437232
63	0x3d6be29a	0.05758915
64	0x3d3d5ecf	0.046232995
65	0x3ce88f23	0.028388565
66	0x3ca0226d	0.019547665
67	0x3d499293	0.04921205
68	0x3d016ed6	0.031599842
69	0x3d06a369	0.032870684
70	0x3d460844	0.048347726
71	0x3bf26b15	0.007398019
72	0x3d225162	0.039628394
73	0x3d5c905f	0.05384862
74	0x3cead5cc	0.0286664
75	0x3d572d11	0.052533213
76	0x3c8983e6	0.016786527
77	0x3d0f5059	0.034988735
78	0x3d0fa53f	0.0350697
79	0xbc93040d	-0.017946268
80	0x3ca8e9f8	0.020619377
81	0x3d6e8d37	0.05824014
82	0x3d2baa64	0.041910544
83	0x3d441484	0.047871128
84	0x3d217b05	0.03942396
85	0x3c693567	0.0142339235
86	0x3cc5a949	0.024128573
87	0x3d0764b9	0.03305504
88	0x3d8018c2	0.06254722
89	0x3d4d42c6	0.05011251
90	0xbbbcc3be	-0.005760639
91	0x3d0787e8	0.033088595
92	0x3d27f5af	0.041005787
93	0x3d0667fd	0.032814015
94	0x3d7765d1	0.060399834
95	0x3d374862	0.044746764
96	0x3d46f7a4	0.048576012
97	0x3c18c988	0.009325393
98	0x3ce6e0be	0.028183337
99	0x3cf3949f	0.029733954
100	0x3d132c71	0.035931055
101	0x3bef98c0	0.0073119104
102	0x3d3e36ad	0.04643886
103	0x3c4bded4	0.012443263
104	0x3c9049be	0.017613288
105	0x3ce14d04	0.027502544
106	0x3d84047e	0.06446169
107	0x3d4a0366	0.049319647
108	0x3cfee2e1	0.031114044
109	0x3d22c052	0.039734192
110	0x3d0e3290	0.03471619
111	0x3d850c6a	0.064965084
112	0x3cd7fcef	0.026365725
113	0x3ce2c3b1	0.027681204
114	0x3d68285b	0.05667911
115	0x3d21814b	0.039429944
116	0x3d013d7e	0.031552784
117	0x3d230e41	0.039808515
118	0x3cbab898	0.0227931
119	0x3d41effd	0.04734801
120	0x3d108874	0.03528638
121	0x3d363530	0.044484317
122	0x3ca9ea70	0.020741671
123	0x3c0dbc25	0.008650814
124	0x3cf5f738	0.03002511
125	0x3cdec910	0.027195483
126	0x3d099603	0.033590328
127	0x3cfe2927	0.031025482
128	0xbda5561a	-0.08073063
129	0xbe28bba2	-0.16477826
130	0xbe0a4f07	-0.13506709
131	0xbdfa458c	-0.12220296
132	0xbcc972be	-0.024590846
133	0xbdf492d9	-0.119420715
134	0xbdfd2000	-0.12359619
135	0xbd48bc57	-0.04900774
136	0xbd845d81	-0.06463147
137	0xbe09a2c2	-0.13440993
138	0xbe125a47	-0.1429225
139	0xbe0575fa	-0.13033286
140	0xbd4b2223	-0.049593102
141	0xbdddf95f	-0.108385794
142	0xbe3bb375	-0.18330176
143	0xbe254d19	-0.16142692
144	0xbd0408cf	-0.032234963
145	0xbdd65d6d	-0.10467038
146	0xbda69952	-0.08134712
147	0xbe068a34	-0.13138658
148	0xbe11cbca	-0.14237896
149	0xbd939f10	-0.07208073
150	0xbd1c9891	-0.038231436
151	0xbddc6c09	-0.107627936
152	0xbe43678a	-0.19082466
153	0xbe038de3	-0.12847094
154	0xbdb61dd0	-0.08892405
155	0xbda0a33b	-0.07843634
156	0xbdd32c2a	-0.10311158
157	0xbd664830	-0.056221187
158	0xbe11c0d0	-0.14233708
159	0xbde0817b	-0.109621964
160	0xbcd2150a	-0.025644798
161	0xbdde23db	-0.10846683
162	0xbda1a5c5	-0.07892946
163	0xbd7c751d	-0.061635125
164	0xbdbde105	-0.09271435
165	0xbcb246fc	-0.021762364
166	0xbd600e94	-0.054701403
167	0xbdc862d6	-0.097844765
168	0xbe043a58	-0.12912881
169	0xbe35904e	-0.17730829
170	0xbe0a8c2e	-0.13530037
171	0xbdc66e68	-0.09689027
172	0xbe26b3a6	-0.16279468
173	0xbdd867fe	-0.1056671
174	0xbd178fe3	-0.037002455
175	0xbdf9b246	-0.12192206
176	0xbde911d6	-0.11380355
177	0xbdf49c53	-0.11943879
178	0xbdf9217a	-0.12164588
179	0xbdfa4da0	-0.12221837
180	0xbdf0baff	-0.11754417
181	0xbe09e73b	-0.13467114
182	0xbdde0b52	-0.10842003
183	0xbde93ef6	-0.11388962
184	0xbe2baaf2	-0.16764429
185	0xbe29eeb5	-0.16594966
186	0xbe0bb4a2	-0.13643125
187	0xbdde8196	-0.1086456
188	0xbdad8b43	-0.08473828
189	0xbe0b33ce	-0.1359398
190	0xbdb1eb24	-0.08687428
191	0xbe3aaad6	-0.18229231
192	0xbe2b8814	-0.16751128
193	0xbdaa832d	-0.08325801
194	0xbdf39083	-0.11892798
195	0xbd8f3817	-0.0699312
196	0xbd750740	-0.059821367
197	0xbda86a25	-0.082233705
198	0xbdc1e662	-0.0946777
199	0xbe02dc88	-0.12779438
200	0xbd7caf02	-0.061690338
201	0xbe29be02	-0.16576388
202	0xbe1c5386	-0.15266237
203	0xbe1de0fa	-0.15417853
204	0xbd871567	-0.06595879
205	0xbda6a8db	-0.081376754
206	0xbdf5e2e3	-0.12006166
207	0xbc07d548	-0.008290596
208	0xbd63c510	-0.055607855
209	0xbe0f1fe2	-0.13977006
210	0xbe050976	-0.1299189
211	0xbe2121b5	-0.15735514
212	0xbe25602e	-0.16149971
213	0xbc9c3ca3	-0.019071883
214	0xbe279488	-0.16365254
215	0xbe18ef21	-0.1493497
216	0xbdff6bac	-0.12471709
217	0xbe01a681	-0.12661172
218	0xbda9f69f	-0.08298992
219	0xbde19a9b	-0.11015817
220	0xbe2c7429	-0.16841187
221	0xbe0e86bb	-0.13918583
222	0xbdfcc56c	-0.12342343
223	0xbd86b228	-0.06576949
224	0xbe185bbd	-0.14878745
225	0xbccef1ee	-0.025261845
226	0xbdf2e3a6	-0.11859827
227	0xbca94506	-0.020662796
228	0xbe198858	-0.14993417
229	0xbdc76d3d	-0.097376324
230	0xbdeedc64	-0.1166313
231	0xbd7ca01b	-0.061676126
232	0xbdd5c8a0	-0.10438657
233	0xbd805526	-0.06266241
234	0xbe41840a	-0.18898025
235	0xbe0636e1	-0.13106872
236	0xbd9770ef	-0.07394587
237	0xbdc1a6fc	-0.09455678
238	0xbe201888	-0.15634358
239	0xbe16d30d	-0.14728947
240	0xbdebe372	-0.11517991
241	0xbe0aa782	-0.13540462
242	0xbdb6413b	-0.088991605
243	0xbdf57f52	-0.11987175
244	0xbdee57e6	-0.11637859
245	0xbd97a163	-0.07403829
246	0xbda9b3e4	-0.082862645
247	0xbdf5ba72	-0.11998452
248	0xbd963d24	-0.073358804
249	0xbdcb2888	-0.0991984
250	0xbda2fab1	-0.07957972
251	0xbd2c4ee5	-0.042067427
252	0xbde3f885	-0.11131386
253	0xbdb29c77	-0.087212496
254	0xbe0eec8a	-0.1395742
255	0xbe12aaed	-0.14323016
